DL-prototypes/src/Pre-trainedModels/standard_model.pth (torch_old, 209774 bytes, 18 tensors)

weight f4 [32, 1, 3, 3]
00000000: 0944 1340 b3ad 733f 7933 123f 90d1 4940
00000010: 8ba1 0240 a112 5e40 2982 0140 2baa 9040
00000020: ea6c aa40 ac58 25bf 02d9 3b3f ed17 cc3f
00000030: 9e83 303e fd67 803f 1a2a db3f db16 0e3f
00000040: e238 f03f a9b9 463f 6e2a 233f 7761 3e3e
00000050: a2cc 6dbf b02d bdbd fa43 5fbf a836 78bf
00000060: ecd1 e3bf ff2a 3ebf 8e54 23be 8894 88bf
00000070: a5b3 b9bf d612 b2bf b870 ab3e 9409 17bf
00000080: 05d3 733e eee6 353f 2f42 2a3f 4206 6a3f
00000090: e855 14bc 20b0 963f 63ea 5b3f f1f0 433d
000000a0: a0e9 a73f 8ca6 5a3f 4898 493f cfea de3f
000000b0: 3d62 443f 481c 5f3f 4aca 983f 5470 133f
000000c0: 2da8 d63d 3c34 4ebf dcab 90bf b5e1 92bf
000000d0: d281 95bf 839f abbe e711 453f 0f9e 773f
000000e0: bd11 b3be aed4 393f cdf5 8a3f e3c9 0ebf
000000f0: 1c19 3dbe 6c21 f8be 8430 13bf 6a03 27bf
00000100: 0fab 40bf 0586 7cbf 8927 7d3d c724 33bf
00000110: 43b1 15bf e84a 9f3e 8090 7f3f 345a 223f
00000120: 1f6d 1d3e 165c 89bf ac10 a1bf c2cd 89be
00000130: 9250 59bf fdb7 90be 6f0a 5f3f 1304 7c3f
00000140: 901a db3e d299 b0be 148a 6f3e 722f 993e
00000150: 5323 23bf 87f7 3fbf b011 203f 58a2 87bf
00000160: d913 d1be 692c 363f 3a33 1e3f ef77 4c3e
00000170: a61e f83d cc81 053f 0c69 6ebf de4c 86bf
00000180: 1243 fa3e 3ec6 03bf 49f8 36bf 8d1b 61bf
00000190: ad88 5d3f 6a1c c73e 8891 0cc0 59fc 36bf
000001a0: 6449 b8bf d148 0cc0 8275 c5bf 0ef6 cfbf
000001b0: d72c 09be ba1f be3e a612 823f ce26 1fbf
000001c0: 4112 bbbe 5d6c 14bf 1159 0fbf f6f8 4abe
000001d0: 9f59 61bc 02d7 b1bf 35e2 eebe 69ac 13c0
000001e0: 089d 89bf 120d 833d a6cb f6bf 862f d8bf
000001f0: fd7f aebf 4a11 f6bf 3cd6 f1be 05c8 73be
00000200: c808 453f c1cb 6fbf 0b9a a0be 0380 a83e
00000210: 5e52 47bf 5309 123e b028 053e ddb1 58bf
00000220: 6904 4abf 20e7 d1bf 0e63 64bf a9f0 86bf
00000230: 1f88 26bf 828c dabe 71f6 393f 66c0 f43e
00000240: a78d f33e 1899 8d3f a280 0e3f 2e64 8d3f
00000250: d99e f43f a170 573e 7e24 a03f dc27 0c3f
00000260: e421 48bf 42a7 a3bf 91f6 c9be 9c7e 84bf
00000270: ee3f f53e 49a4 a03f 4c74 7b3f fa50 cd3d
00000280: cdc5 a13f c47f 943e d610 5c3e a2fa b5bd
00000290: 3bac ee3e 24bd e7be 048d 28bf a770 c33e
000002a0: 17d2 fabe d7ca 10bf 2cce 39be a2f9 5a3e
000002b0: 6d2f 273f 8706 6b3d e8c0 b8be 44b9 43bf
000002c0: 064b 9dbf 7a2e f83e cf86 8c3e 584a 40bf
000002d0: e188 e13f ad62 b43f 26ac 783f a468 953f
000002e0: 0ffa ca3f 6dce d33f 5ac1 593f ab6e 7c3f
000002f0: 4cd9 853f 131e 95bf dae5 4abf 2571 a4bf
00000300: 2cc0 4f3e c844 9d3f 87de 5a3b 8618 363f
00000310: d25d ce3f 5508 ab3e f332 4c3f fcc4 393f
00000320: 33d6 00be 977f 213e 567d 9a3c db46 acbe
00000330: 0a64 06bf 5e37 83bf 7b65 64bf 03d2 75bf
00000340: b82e 49bf 1e87 84bd f207 b6be bea9 07bf
00000350: 4116 8cbe 7ad2 9bbb 613b a83e c065 743f
00000360: dacb 8a3f b549 8f3f 7412 863f df17 99be
00000370: 446d c3be 5172 813e 618c debf b1ef bebf
00000380: 76d8 8cbf d42a 8140 2432 2840 e7df ff3f
00000390: c578 8140 f701 133f 6228 1b40 c778 9e40
000003a0: 4b6b 9940 e353 4a40 1169 363f 3ea0 0a3f
000003b0: 6d56 a33e 0e01 b6be ae59 64bf ca37 3dbf
000003c0: dfc8 2abe ca03 29bf a8c5 b4be b5af f9bf
000003d0: b05d f23b a4c3 0a3e dce6 c6bf 7ef3 ecbf
000003e0: 72cd 3ec0 f0f0 923f 9bb2 023f 968d 7cbf
000003f0: 2a1a 97bf 5c3c c0bf 735e 83bf d8c8 10bf
2.3010275 0.9518692 0.5710979 3.1534157 2.0411098 3.469887 2.0235693 4.5207725
5.325795 -0.6458843 0.73378 1.5944802 0.17237708 1.0031735 1.7122223 0.55503625
1.8767359 0.77627045 0.6373662 0.18591867 -0.9289037 -0.0923723 -0.872131 -0.969584
-1.7798438 -0.74284357 -0.15950224 -1.0670328 -1.4507948 -1.3911998 0.33484435 -0.5899899
0.23810966 0.71055496 0.6650724 0.914158 -0.009053685 1.1772499 0.8590452 0.0478372
1.3118172 0.8541038 0.7874799 1.7415408 0.767124 0.8715253 1.1936734 0.57593274
0.10481296 -0.80548453 -1.1302447 -1.147513 -1.1680243 -0.33520135 0.7698044 0.96725553
-0.3497447 0.7259015 1.0856262 -0.55776805 -0.1846661 -0.48463 -0.57495904 -0.65239584
-0.75261015 -0.98642 0.06180528 -0.6997799 -0.58473605 0.31111836 0.99829865 0.6341889
0.15373658 -1.0731227 -1.2583213 -0.26914793 -0.84888566 -0.28265372 0.87125295 0.98443717
0.42793703 -0.34492356 0.23392516 0.2991901 -0.63725775 -0.7498707 0.6252699 -1.0596418
-0.40835455 0.71161515 0.61796916 0.19967626 0.12115221 0.5215118 -0.9312904 -1.0492208
0.48879296 -0.5147437 -0.71472603 -0.87932664 0.86536676 0.38888866 -2.1963825 -0.714788
-1.4397397 -2.1919444 -1.5426486 -1.6246965 -0.13396011 0.3713358 1.0161941 -0.62168586
-0.36537364 -0.5797785 -0.5599528 -0.19821534 -0.0137542775 -1.389374 -0.46656957 -2.307398
-1.0751047 0.06398977 -1.9280899 -1.6889503 -1.3632809 -1.9224026 -0.4723376 -0.2380677
0.76966524 -0.9367028 -0.31367525 0.32910165 -0.7786006 0.1426137 0.13003802 -0.846464
-0.7891298 -1.6398659 -0.89213645 -1.0542194 -0.65051454 -0.42685324 0.72641665 0.47803038
0.4756901 1.1062346 0.5566503 1.1046197 1.9110976 0.21039058 1.2511137 0.5474832
-0.78176713 -1.2785418 -0.39445928 -1.0351138 0.47900337 1.2550136 0.9822433 0.10025211
1.2638489 0.29003727 0.21490797 -0.08885695 0.46615776 -0.4526149 -0.6584017 0.38171884
-0.4898841 -0.5655951 -0.18145055 0.2138429 0.6530674 0.05737927 -0.36084676 -0.7645457
-1.228852 0.4847296 0.274466 -0.7511344 1.7619897 1.4092613 0.9713768 1.1672559
1.5857562 1.6547371 0.85060656 0.98606366 1.0456939 -1.1649803 -0.79256976 -1.2847029
0.20288152 1.2286615 0.0033396797 0.7113117 1.6122382 0.33404794 0.7976524 0.725662
-0.1258171 0.15771328 0.018858593 -0.33647808 -0.524964 -1.0251272 -0.89217347 -0.9602358
-0.7858691 -0.06471084 -0.35552937 -0.5299338 -0.27360728 -0.0047553154 0.32857803 0.9546776
1.084346 1.1194369 1.0474381 -0.29901025 -0.381693 0.2528253 -1.738659 -1.4916898
-1.1003559 4.036478 2.6280603 1.9990205 4.0459924 0.57424873 2.4243398 4.9522433
4.7943473 3.16137 0.7125407 0.5415076 0.31901875 -0.3554768 -0.8919934 -0.7391325
-0.16678189 -0.66021407 -0.3530705 -1.9506747 0.0073964223 0.13551193 -1.5539203 -1.8511808
-2.9812894 1.1479778 0.5105378 -0.98653543 -1.180486 -1.501842 -1.0263199 -0.56556463

bias f4 [32]
00000000: 9556 383e bb13 66be 67f7 4e3e ae19 473f
00000010: 3b88 c2be 19f0 2bbe 45c9 813c 5233 433f
00000020: 28cb 0f3f ecdd 003f 3c32 443f acc0 853e
00000030: bb31 9d3e 2ee9 9a3e 84be 093f 7fbc 373e
00000040: a5a1 9cbe 1274 593d 2191 343f 9ef9 2c3f
00000050: d3a1 2ebe 53a2 46bd 1fb3 863f 03ca 923f
00000060: 3d63 49be 87a8 9f3d aec2 8a3f abd1 e83e
00000070: c513 473f 8202 7f3f 212f 15bd 75b1 013f
0.18001778 -0.22468464 0.20211564 0.7777356 -0.3799456 -0.16790809 0.015843043 0.76250184
0.56169367 0.50338626 0.7663915 0.2612356 0.30702004 0.30256027 0.5380633 0.17943
-0.30592075 0.05308921 0.7053395 0.67568386 -0.17053919 -0.04849465 1.0523413 1.1467899
-0.19666763 0.07795816 1.0840662 0.45472464 0.7776454 0.996132 -0.0364219 0.506614

weight f4 [32, 32, 3, 3]
00000000: 438d c03c 217d 1cbe 51e7 bb3d 5967 073e
00000010: 099d 39be 5631 b13d 7be9 57bd b272 10be
00000020: c5a4 16bc 5bc1 d63d 2a3d c7bd c7b6 a13d
00000030: 40a7 cc3d 961a 41be cdf0 293e b948 01bd
00000040: b7d2 debc 80e7 e03d f823 dcbe fd41 093d
00000050: 244c 80be e651 c8be 3dbc 153f 1552 b3be
00000060: bb32 8abe a43a e83d 1902 a8bd 940b 9c3c
00000070: 1272 393f ab82 d43c 26ad 2abe 0598 1d3f
00000080: 805d 91be ecf7 1d3d 2a98 a43e 2478 a8bd
00000090: cf1a 343e 6b6c e3bd 369b 733d 8e02 633e
000000a0: 1c06 27be 1220 193e 64c5 85bc 7c34 7abc
000000b0: f899 113e b267 57be cfc8 053f 12b4 f8bc
000000c0: cdec 1ebe 60a3 4f3f 531d 40bc 7c34 763d
000000d0: 46e3 bd3e cd2b c63c 06b3 2d3d d547 69be
000000e0: 13fe f7bc e744 533d 63f2 253d 9c59 1cbd
000000f0: c8f1 b33d 23ed 96bd 086b 823d 990d 063d
00000100: b501 343f a3a1 94bd 23e9 42be bb1e 303f
00000110: 4dfe 91be 663b 803c 6f51 b83e d714 a7bd
00000120: da36 b23c 5a53 3a3f 8066 6ebe 2cfb e5bd
00000130: 7309 463f ef9a b2be 8868 693d 7af9 a63e
00000140: e61b bbbd 1aa6 cfbe dffe a03e f037 0abd
00000150: 45d6 b2be c60d f93e 2e79 5cbe c8bf 05be
00000160: b37e 203e a489 39be 0a39 ddbd 2771 f93e
00000170: 18fd b7be fdd2 9cbd 400c 053f f097 fcbe
00000180: 2681 7bbc 491d 883e 872b 27be 3f5c e5be
00000190: 6709 b3bd 21b9 f1be 4ca8 0bbf 7dd3 593f
000001a0: f582 e8be cfbf 4cbe cda9 ac3e 390f 1dbe
000001b0: 5952 d6be 0fb7 983e 90da 36be 8c81 bbbe
000001c0: f901 2b3f 84a5 2ebe 956d 7ebe 7b51 4f3e
000001d0: 05c9 edbd 93cd 07bf c7fb 35be 144a 1abf
000001e0: 45d5 54bf a186 243f 70d1 39bf 72a8 babe
000001f0: 049d 523e 7b88 a5be a708 fcbe a04d db3e
00000200: 8060 62bd 0722 d0be f867 133f 3362 34be
00000210: 7773 34be 9ec2 f43d 0799 02be bf00 48be
00000220: 9b26 d03e 70a4 96be 403d 98be 3c0e 333f
00000230: 562b a5be afe2 47be d0e7 9b3e 0b54 76be
00000240: d827 bf3d 043c e0bd a58a 2ebd 7a27 ad3d
00000250: 46bb 59bd b7e9 693e 546b d83d 23e3 6dbd
00000260: abc9 343e 8cff f43c 7b12 4abe 742d 003c
00000270: d9ff edbc edf7 33be b3c6 d3bb 5644 3cbb
00000280: d0de 3fbd 197d 50bd 2764 cbbe 9d3c e53e
00000290: 35b2 28be 0594 a5be 2b15 003f ba37 61be
000002a0: 7325 dbbb e6cb 623e e1f0 0dbe 8f13 1fbe
000002b0: 9145 103f 9f6d cfbe 7c05 ffbd 400e 4c3f
000002c0: 25f3 8dbe ad98 acbc 0564 7d3e 3c01 81bd
000002d0: d98c 423d 0d2e 2cbe 0384 813d 2d12 423e
000002e0: 8ac4 e8bd 08b5 593e fb34 cebc cd67 08be
000002f0: a40b a03d adfb a2bc bc99 2ebe e680 5fbe
00000300: 35ad 0e3c ac85 a8bd f0f8 8dbd 2d48 93bd
00000310: c4cb 8ebd 843a e3bc 234d d4bd 88bb de3e
00000320: 24d4 97be 00c2 f7bd 3f23 0e3f 9d45 a2be
00000330: 7a75 f03d 3f4f 573e fad6 b9bd 06e7 80be
00000340: 1285 153f ac56 3cbd 4145 99be b435 183f
00000350: 8411 32be 17b0 dfbb c776 843e 03cb bebd
00000360: 0bbf 6bbe c2e4 553f 5138 5a3e 8c44 4ebd
00000370: 19b9 363f 490c e33d 6e12 0a3e da7a c73e
00000380: 6e56 0a3e e7f2 ed3d 950a 32bd efcd ee3d
00000390: 42da 3f3e 015c 30be f494 1b3e fb35 893d
000003a0: ce11 a6bd 05b3 ef3d f9ba 46be 8b1a e73e
000003b0: ae42 5cbe 6c88 d4bd f698 173f eaab 83be
000003c0: fd16 8f3d b897 a73e 0256 cbbd 42cf 5abe
000003d0: 3aad 0b3f f583 0bbf 5b47 01bf e2ad 263f
000003e0: 4ee3 c5be 679f 71be 4f7e de3e 3321 c6bd
000003f0: f1ad 113d 344b 623f cba4 003e 90c0 58be
0.023504859 -0.15282108 0.091749795 0.13223018 -0.1812631 0.08651988 -0.0527129 -0.14106253
-0.009194558 0.104860984 -0.09728463 0.0789619 0.09992838 -0.18857798 0.16595764 -0.031563494
-0.027200086 0.10981655 -0.42996192 0.033510197 -0.2505809 -0.39124984 0.58490354 -0.3502356
-0.2699183 0.1133931 -0.08203525 0.01904849 0.7243968 0.025941214 -0.16667613 0.6156009
-0.28391647 0.038566515 0.32147342 -0.0822604 0.17588352 -0.111046635 0.059474193 0.22168943
-0.16310924 0.1495364 -0.016329475 -0.015271302 0.1421889 -0.2103565 0.52259535 -0.030359302
-0.1552002 0.81108665 -0.011725741 0.060108647 0.37087458 0.024190808 0.04240706 -0.22781308
-0.03027252 0.051579382 0.04051436 -0.038171396 0.087863505 -0.07369449 0.06368071 0.03272781
0.70315105 -0.07257392 -0.19034247 0.6879689 -0.2851433 0.015653323 0.3599963 -0.08158272
0.02175467 0.72783434 -0.23281288 -0.11229548 0.7735817 -0.3488383 0.056984454 0.3261221
-0.091361806 -0.40556413 0.3144445 -0.033744752 -0.349291 0.4864332 -0.21530601 -0.1306144
0.15673332 -0.18118912 -0.10801895 0.4871914 -0.35935283 -0.0765743 0.51971817 -0.4933467
-0.015350616 0.26584843 -0.16325198 -0.4479694 -0.08742028 -0.47211555 -0.54553676 0.8508833
-0.45412412 -0.19995044 0.33723298 -0.15337838 -0.418597 0.29827163 -0.17856812 -0.36622274
0.66799885 -0.17055327 -0.2484649 0.20245926 -0.11610607 -0.53048056 -0.17771827 -0.60269284
-0.83137923 0.6426793 -0.725852 -0.3645664 0.20567709 -0.3233069 -0.4922535 0.4283266
-0.05526781 -0.4065096 0.5758052 -0.17615585 -0.17622171 0.11951183 -0.12753688 -0.19531535
0.40654454 -0.2942233 -0.2973423 0.69943595 -0.32259625 -0.19520067 0.30450296 -0.24055497
0.093337715 -0.10948947 -0.04261269 0.08454795 -0.053157113 0.22843061 0.10567346 -0.058077943
0.17655055 0.02990701 -0.19733612 0.007823337 -0.029052662 -0.17575045 -0.006462896 -0.0028727255
-0.04684335 -0.050900552 -0.39724848 0.44772807 -0.1647423 -0.32339492 0.500323 -0.21993914
-0.006687814 0.22148094 -0.1386142 -0.15534805 0.5635615 -0.40513322 -0.12452218 0.79709244
-0.27724567 -0.021068895 0.24745186 -0.062990636 0.047497604 -0.16814442 0.06324007 0.18952246
-0.11365612 0.21260464 -0.025171747 -0.13320847 0.0781472 -0.019895399 -0.17050833 -0.21826515
0.008708288 -0.08228621 -0.06932247 -0.07191501 -0.06972459 -0.027737863 -0.10366275 0.4350245
-0.29654038 -0.120975494 0.5552253 -0.31693736 0.11741157 0.21026324 -0.09074207 -0.25176257
0.58406174 -0.045981094 -0.2993565 0.59456944 -0.17389494 -0.0068264115 0.2587187 -0.09316065
-0.23022096 0.8355218 0.21310546 -0.05035834 0.71376187 0.110863276 0.13483593 0.38960916
0.13509533 0.116185956 -0.043467123 0.116603725 0.18735602 -0.17222597 0.1519354 0.06699749
-0.08108865 0.11704067 -0.19407262 0.45137438 -0.21509811 -0.10377583 0.59217775 -0.25717098
0.069868065 0.3273294 -0.09928514 -0.21368125 0.545612 -0.54498225 -0.50499505 0.65109074
-0.38649982 -0.23595963 0.4345574 -0.09674301 0.035566274 0.88396 0.12562864 -0.21167207

bias f4 [32]
00000000: fdef a33c d62a f5bc 7b68 15be 50e3 4bbd
00000010: 9787 9a3d 92dc 25bc 6cc2 d4bc bc45 09be
00000020: 818a bdbd 4f7f 81bd e357 29bd cd7b 72bd
00000030: d12b 36bb 41ad 24bc 7225 30bc f66e 0f3d
00000040: af8f 15be c84b c3bc d2c4 91bc 820a f13c
00000050: 1555 983d 95b6 dcbd af3e 0f3c c9c9 9f3c
00000060: 737d 85bd 8039 50bd f405 b9bb 2278 d0bc
00000070: 20d1 42bd 2010 14bd 60ae cabd e07d e3bd
0.020011896 -0.029927652 -0.14590637 -0.04977733 0.07545393 -0.010123389 -0.025971614 -0.13405508
-0.09254933 -0.0632311 -0.04134358 -0.059200097 -0.0027797113 -0.010051073 -0.010751115 0.03501793
-0.14605592 -0.023839846 -0.017794047 0.029423956 0.07438103 -0.10777012 0.008742972 0.019505398
-0.06518068 -0.050836086 -0.0056464616 -0.025447909 -0.04756272 -0.03614819 -0.09896541 -0.11107993

weight f4 [32, 32, 3, 3]
00000000: 0079 63bd a4eb b33b 113a 14be fb41 623e
00000010: 9c2a 873e 573d 9d3d 7aec 953e a0ea 583e
00000020: 876e fabd 60af 22be d5af b7be 6827 d73d
00000030: 8359 02be 84e8 3cbe 0023 4abe cb0e d6be
00000040: 1c60 073c 142f babd b9b0 56be e77d 0ebe
00000050: 1598 123f 27cb 47be f93f f6be 448a 38bf
00000060: ee87 e0be 169d e0bd f01f 0ebc 44c7 e13d
00000070: 10e4 533d 5848 143e fbcd 3b3d 9d28 cc3d
00000080: 2d39 f8bd b060 26bd b181 113e 58d8 b4be
00000090: 01b2 c53c 7d1a 4cbc 0ed3 1abe d254 4f3e
000000a0: f0a1 793e 1c07 5abe ffd1 383e 478c b23d
000000b0: 9576 53be 8cd2 9f3d 26de 47bd 20a4 973d
000000c0: 6382 a13d 65d0 4b3e 663b 1d3d ec91 543e
000000d0: 5887 b83d 5155 24be c166 b33d c6ca 27ba
000000e0: 0eff 81bd b0fb 8a3e c90e 9c3e 1148 9bbc
000000f0: 097c 853e e340 92bc 3f48 b7bd ffd8 f23c
00000100: 0297 43bc de7b 0e3e 29f6 23be 2032 c2bd
00000110: c208 2ebf 9634 23be 8f15 873d 8fce 063e
00000120: c753 763d 4bf9 f03d 6872 883e 1843 b63d
00000130: 3d77 a1be a24a 02bf f5ed 93bd 007a 9a3e
00000140: b5c0 7abe 3805 96bc 22f7 723e 178a 8e3e
00000150: 6683 8a3d a83a 7ebe ddc8 21be 5f27 c7bd
00000160: 5f4a ff3d 887c 9c3e 4ef5 253e 7cb0 d2bd
00000170: 4478 96bd 3a00 293e 6bfb 853e a1e1 b23d
00000180: 8ce4 7e3d ea45 2e3e 884d 1b3d 663a e03d
00000190: 7742 3d3e 14cd 903d 357d cd3e 4b08 923e
000001a0: aff9 883e 5f6c ea3d 0ed4 573e 6f4f 0a3e
000001b0: 85b4 a8be 4044 f0be b678 38bf 467e a83e
000001c0: a7c9 49be 8f43 283d 7130 53bd f7a1 583e
000001d0: cebf 08be 1639 64be e410 28be ff3d b53e
000001e0: 9e6a ca3d fe31 1fbe 21cb 05bf f9af 103d
000001f0: e6bc 6a3e 5d84 e8be 870a 9cbc a8fc 25be
00000200: fb1d 0d3c 85e4 5cbe 48d0 88be a36c bbbd
00000210: c431 833d 16af af3d 652f 263e 59bc ecbd
00000220: e1c1 15be ac57 b0bd aeb2 4dbd 4c5f ccbd
00000230: 41f9 31be 3fe8 cbbc 3f2c 493d 1c96 45be
00000240: 4403 a2bd df07 1abe 37ed 333c c1ee 89bd
00000250: c9f3 2dbe 7578 58bd c16a d8be 8316 2fbe
00000260: 5bf2 82be 0ed5 023e e781 a43e 7eb7 d73d
00000270: f315 c0bb 7ec5 3fbe 804d 46be 8bf2 ed3c
00000280: 8222 38be 886f 543d 845e 503d a996 363e
00000290: b10c d6bd 8ed9 46bd 9cdb 80be 1272 2b3e
000002a0: ea26 23be f2a1 febe 7000 bbbc 99de 6dbe
000002b0: a89e b0be e751 7cbe 089e adbe 8efe ccbe
000002c0: eeb8 05bf 6dfc b2bd dfdf 4fbe 1566 debe
000002d0: 1ac7 a8bd 4c05 963d aa48 02be e4a0 423d
000002e0: 2352 8e3e 2113 11bd 3f01 523d c9c6 b5bd
000002f0: 64f5 083e e8e8 92be f344 21bd 7dc9 723e
00000300: b5ba 88be dc96 b7be aef0 09bf 591f 0dbd
00000310: 857f 69be f831 11bd 3280 9d3e e961 10bc
00000320: 2e5c 5c3e 9029 64be d97d ab3b c3f1 5abf
00000330: c714 97be 0e0a b4be 5ca6 14be 41f3 dcbd
00000340: e54c 063d 9185 b23c e13e 2abe fc3a 57be
00000350: d243 b2bd c635 00be 74d7 a9be 3285 383e
00000360: cd2c 68bd 7ffa cbbd 86fc 6f3e d5ab c73c
00000370: 83e0 d8be 8765 9abe f4a9 0ebe b146 4d3e
00000380: 52da 703d 328d 2cbc 991b 07be d462 33be
00000390: 0b8e 683e cf48 fb3d 5a5b e6bd 1e71 ffbd
000003a0: aef0 903d 1fad b03d 8131 ed3d 3e74 cebd
000003b0: 238b 173f 7814 08be 9b73 aabe 7e81 18bf
000003c0: 917d a1be fd96 853d 1bfe 11be 9e3e 403e
000003d0: 4d94 ca3d 1182 b73e 389d fbbc ef13 6abe
000003e0: cb93 e3be 15c4 32be c83f 843e 987c c2bd
000003f0: 8ccc 1bbe ecdd 4fbe 005c e63d 4a81 c3bd
-0.055535316 0.005490737 -0.14475276 0.22095482 0.26399696 0.07677715 0.2928198 0.21183252
-0.12228113 -0.15887213 -0.35876337 0.10505563 -0.12729459 -0.18448073 -0.19739914 -0.4180816
0.00826266 -0.09091011 -0.20965852 -0.13915215 0.5726331 -0.1951109 -0.48095682 -0.72085977
-0.43853706 -0.10967462 -0.008674607 0.11024335 0.05173117 0.14480722 0.045850735 0.09968684
-0.121202804 -0.040619552 0.1420963 -0.35321307 0.02413273 -0.012457487 -0.15119573 0.202472
0.2437818 -0.21291775 0.18048857 0.08718162 -0.20650704 0.078038305 -0.04879584 0.07404351
0.078861974 0.19903715 0.038386725 0.2075879 0.0901019 -0.1604817 0.08759833 -0.000640076
-0.06347476 0.27145147 0.3048003 -0.018955262 0.26071194 -0.017853206 -0.08949327 0.029644487
-0.011937859 0.13914439 -0.16011871 -0.09482217 -0.67982113 -0.15938029 0.06595909 0.13164733
0.06013849 0.11766299 0.26649785 0.08899516 -0.31536284 -0.5089513 -0.07223121 0.30171204
-0.24487574 -0.018313035 0.23727086 0.2783973 0.067633435 -0.24827063 -0.1579928 -0.09724306
0.12465357 0.3056376 0.16206858 -0.10287568 -0.073471576 0.16503993 0.2616838 0.087344415
0.062229678 0.17018858 0.037915736 0.109486386 0.18482386 0.070703655 0.40134588 0.28521952
0.26752993 0.114464514 0.21076986 0.13506864 -0.32950225 -0.4692707 -0.7205919 0.3290884
-0.1970583 0.041080054 -0.05155987 0.21155535 -0.13354418 -0.22287402 -0.16412693 0.35398862
0.09883617 -0.15546414 -0.52263075 0.03532407 0.22923622 -0.45413485 -0.019047989 -0.16209662
0.008613105 -0.21571548 -0.26721406 -0.0915158 0.064059764 0.08578317 0.16229017 -0.11559362
-0.1462474 -0.08610472 -0.05021923 -0.09979114 -0.17380239 -0.024891017 0.049114462 -0.19295543
-0.07910779 -0.15042065 0.010981849 -0.06734992 -0.16987528 -0.05284925 -0.42268947 -0.17098431
-0.25575528 0.12776586 0.32130358 0.10533045 -0.0058619916 -0.18727681 -0.19365501 0.029046318
-0.17981914 0.051864177 0.050871387 0.1783091 -0.104516394 -0.04854732 -0.2516755 0.16742733
-0.15932813 -0.4973293 -0.022827357 -0.23229446 -0.34496045 -0.24640618 -0.3390963 -0.4003796
-0.52235305 -0.08739553 -0.20300244 -0.43437257 -0.082411006 0.07325229 -0.12723032 0.04751672
0.2779704 -0.035418633 0.05127072 -0.08875806 0.13374859 -0.28693318 -0.039372396 0.23709674
-0.26704946 -0.35857284 -0.53882873 -0.034453724 -0.22802551 -0.035448045 0.30761868 -0.008812406
0.21519539 -0.2228148 0.005233508 -0.8552515 -0.2950804 -0.3516392 -0.14516586 -0.107885845
0.032788176 0.021792205 -0.16625549 -0.21018595 -0.08704342 -0.12520513 -0.3317219 0.1801956
-0.05668335 -0.09959888 0.23436174 0.024373928 -0.4235879 -0.30155584 -0.1393202 0.20046498
0.058801956 -0.01053171 -0.13194121 -0.17518169 0.22710435 0.122697465 -0.11247893 -0.12472747
0.07077156 0.0862677 0.11581708 -0.10080765 0.5919668 -0.13289058 -0.33291325 -0.5957259
-0.31541112 0.06522939 -0.1425709 0.18773887 0.098915674 0.3584142 -0.030714616 -0.22859167
-0.44448695 -0.17457612 0.2582991 -0.094964206 -0.15214747 -0.202995 0.11248016 -0.09546144

bias f4 [32]
00000000: 4617 463d 1577 d4bd d37c 25be 7a9b 793d
00000010: 188e 24bd 73ae c7bd ba3f c3bd afed 663b
00000020: 0300 723c 663f a23d 25e1 0f3d fcb6 2ebe
00000030: 1dee 2ebd d8e3 883d 70e0 d33b 4170 88bd
00000040: 9c6f b23d 85de 0b3e 6217 e7bc fe62 91be
00000050: 35e5 863c cbd8 20bd 53fa 3f3d c91e bf3d
00000060: ff33 b8bd 5f2a c2bb d086 0dbe 47c3 123e
00000070: 8adb acbd 64b9 bb3d ac8d 303d 1b40 4b3e
0.04836204 -0.103742756 -0.16160898 0.06093929 -0.040174574 -0.097500704 -0.09533639 0.0035236885
0.014770511 0.079222485 0.035126824 -0.1706199 -0.04270755 0.06684083 0.006465964 -0.06662036
0.08712694 0.13659103 -0.028209392 -0.28395838 0.016466716 -0.03926925 0.046869587 0.09332044
-0.089942925 -0.005925461 -0.13820958 0.14332305 -0.08440311 0.0916622 0.04310386 0.19848673

weight f4 [10, 32, 3, 3]
00000000: 82fd 3abd adc0 1abd db9a 3abd b822 45bc
00000010: 8e79 c0be 25dc a9bc 99a1 7d3e d036 ee3e
00000020: 64e0 a8be 1a61 91be 8ccc 98bd 2995 88bc
00000030: 6bb5 b3be 15e1 433e 6d9b 6a3d 06f9 483e
00000040: b6e4 3ebe 946c b4bd bf3d 8abc be4e 593e
00000050: cde7 11bd 7b4b 72bd 8be7 903e 7ed5 073d
00000060: 8703 833e 810e 0c3e 2d73 1e3e 8a66 973e
00000070: 98fc a03e 274a 013d 5d8c f0bd a314 4ebe
00000080: d3c2 573d 8a98 e33e 39ae b53d d89a ae3d
00000090: 9274 f0bd 5479 763e f366 81bd 5042 61be
000000a0: 4adf 603d ba94 48bd 851a 4bbe f3c9 373e
000000b0: 9e7a 67be cf5c 583e 413e 133e eaef e93b
000000c0: 9aec 2ebe 5134 49bd 9489 153e dfac 5a3e
000000d0: 756d 6e3f a9f9 ca3c 2f8f e53d c77e b4be
000000e0: f1a8 b83c fd71 3cbe 9d59 bebf f901 5abd
000000f0: d2b1 8ebd d540 00bf 699e 2cbe 3e98 1f3e
00000100: 39e9 653c 2cd1 babd bd2c 03bd c0e4 a13d
00000110: 131b ca3d bbfd a93e 29d6 0fbe 5d36 123e
00000120: ad47 003e b2fb 4abe 54b8 f43c cd38 f0ba
00000130: 0bc1 ff3d aa0c 97bc d446 93be 4d42 2cbf
00000140: 689f 663d a3e4 efbc 7307 3ebe 63fe 6cbd
00000150: 0d60 433d 7850 bd3d a04b f9bc 313e ce3d
00000160: 9c03 68bf ff40 a8bd 6982 1dbe 50c1 00be
00000170: c771 8abd 60f2 b93d 0f36 ed3c d872 b3bd
00000180: c06a f23e aea0 083f 8a99 1e3d 4d28 e4bd
00000190: 924f 9c3c 52e6 8cbc 3f78 8cbe 89ac afbe
000001a0: 8343 9c3e 5fdb 103e 8039 e9bc d91c a1bd
000001b0: d281 9ebe f5e8 453c 2f23 023e 540a 873e
000001c0: d3fb 94bd b8f8 143e 38f3 7d3e 9589 973e
000001d0: e3a6 42be 25d8 bb3d fd8c c43d 5929 b43d
000001e0: 1f5c bbbe ab6b bcbd 2cd6 983c 0f78 893f
000001f0: f64b 243e 7609 1b3e cb02 1dbf 3f53 f13d
00000200: 4210 3abd 987c d8be d43b 383f ffdd 9abb
00000210: ef6b 1cbe 8249 0cbf d859 25bd 96c5 e4be
00000220: b7e8 fa3c 4b8a e3bd e206 21bd a707 903e
00000230: 42dd 2cbd 14f2 af3d 2dc7 c7be 34c5 81be
00000240: 7e70 7b3e bea6 973e 4986 e4bd aac8 a3bd
00000250: e220 9dbe 3459 b83c c742 b13e 8435 b2bd
00000260: 6523 8ebb 1933 613e 843e bfbd cc18 e5bd
00000270: dedb 31be b431 243e 2e86 823e 5ce8 2e3f
00000280: 5fc7 123e 2ecc babd c2fb d8bc 5bc1 73be
00000290: c016 87bc 0fd7 883b c5e5 8cbe a7aa 2ebd
000002a0: 36c3 953e adae 32bc 48d8 f7bc a7de bbbd
000002b0: 5a32 94be 7ed7 2fbd ff10 cfbd a669 22bf
000002c0: 4ffc 6fbd 70ac af3e 4dd9 aabc 0445 593c
000002d0: b486 b13d 2f56 91bd 4e13 a83d 214c 5f3c
000002e0: ba15 5abe e188 fbbd 5a92 41be 1e9f 50be
000002f0: 7c17 fa3d ec3b a13d 513c a13e 8000 273c
00000300: 149f ff3d 8b8f a43e 6a9e cebd b4da f3bc
00000310: 7952 db3e b200 fc3d 75bf a23d 41a2 943e
00000320: 1f37 0bbd eac2 cb3a 871c bfbe 5a31 1cbe
00000330: 9ecd c9be 45bf 9b3e 6abd 2c3e 5084 a03e
00000340: 5967 6b3d 3fef 10bc 0ac5 213c 47b6 96bd
00000350: 14c4 13bd c939 2b3e f91f 37be 1011 51be
00000360: 08c1 57be 0339 9a3d d81e 543c 13a8 aabd
00000370: 9cb7 d1be ccba 1fbe 207b 5e3d ee39 a73e
00000380: d5ab 893d 3812 da3c 7455 adbd ec1b dbbd
00000390: 0345 ce3b 4bc1 0ebf 5236 1bbe 4ed9 3e3e
000003a0: 4a3e 3f3e 855b 983d 9298 993e 7134 6c3e
000003b0: 838c 5dbb 9557 233e 073e ccbd a40e 07be
000003c0: bff7 b43e 2c5e aa3e 766e 6d3e 7987 1abd
000003d0: 5ea0 50bc 19e0 253b 34fc 1c3e 119c 22be
000003e0: 9f78 c73c 0803 dfbe 4150 34bc 1751 5d3d
000003f0: 8adb d0be 34d2 d0be c9b7 943d 7bac 18bf
-0.04565192 -0.037781406 -0.045557838 -0.012032203 -0.3759274 -0.020734856 0.24768676 0.46526194
-0.32983696 -0.28394395 -0.07460889 -0.016672688 -0.35099348 0.1912883 0.05727713 0.19626245
-0.18641934 -0.08809772 -0.016875146 0.21221444 -0.035621453 -0.059154015 0.28301653 0.033162586
0.2558863 0.13677408 0.15473624 0.2957042 0.31442714 0.031564858 -0.11745522 -0.2012506
0.052676033 0.44452316 0.08871121 0.08525628 -0.11740984 0.2406972 -0.06318464 -0.21997952
0.054900445 -0.04896996 -0.19834335 0.17948131 -0.22605368 0.21129154 0.14379217 0.0071391957
-0.17082444 -0.04912216 0.14603263 0.21355008 0.9313577 0.02477725 0.11208951 -0.35252973
0.022541495 -0.18402858 -1.4871098 -0.053224538 -0.0696751 -0.50098926 -0.16857304 0.1558542
0.014032655 -0.091219276 -0.032025088 0.07904959 0.09868445 0.33201393 -0.1404654 0.1427855
0.12527342 -0.19822577 0.02987305 -0.0018327475 0.12487992 -0.018438656 -0.28764975 -0.67288667
0.056304365 -0.029283827 -0.18557529 -0.05785979 0.047699023 0.09243864 -0.030431569 0.10070456
-0.9063051 -0.08215522 -0.15381779 -0.12573743 -0.067599826 0.090794325 0.028956441 -0.08762139
0.4734707 0.5337018 0.038720645 -0.11140499 0.01908091 -0.017199669 -0.2743549 -0.3431132
0.30520257 0.14146183 -0.028469801 -0.078668304 -0.3095842 0.012079467 0.12708734 0.26375067
-0.07274594 0.14548004 0.24799812 0.29597154 -0.19008975 0.09172086 0.09597204 0.08796949
-0.3659372 -0.092002235 0.018656813 1.0739764 0.16044602 0.15140328 -0.61332387 0.11783456
-0.04542566 -0.42282557 0.7196629 -0.004726171 -0.15275548 -0.54799664 -0.040368885 -0.44681996
0.030628545 -0.11110362 -0.039313205 0.28130838 -0.042203195 0.085910946 -0.39019147 -0.25345767
0.24554631 0.29619402 -0.11158425 -0.07997258 -0.3068915 0.022503473 0.3462126 -0.087016135
-0.0043377155 0.21992148 -0.09338096 -0.1118637 -0.17369029 0.16034585 0.25492996 0.683233
0.14333867 -0.091209754 -0.026487235 -0.23804228 -0.01649034 0.0041760276 -0.2751905 -0.042643216
0.29250497 -0.010905904 -0.030254498 -0.09173327 -0.28944665 -0.04293012 -0.101106636 -0.63442457
-0.05859023 0.34311247 -0.02085557 0.0132610835 0.08668271 -0.07096516 0.08206807 0.01362899
-0.2129735 -0.12281967 -0.18903485 -0.20373198 0.122115105 0.07872757 0.3149133 0.01019299
0.124815136 0.32140765 -0.10088809 -0.029767372 0.4283636 0.1230482 0.07946674 0.2903004
-0.033988114 0.001554576 -0.37326452 -0.15253201 -0.39414686 0.30419365 0.1686913 0.31350946
0.057471607 -0.008846103 0.009873638 -0.073589854 -0.036075667 0.16721262 -0.1788329 -0.20416665
-0.2106973 0.07530405 0.012946807 -0.08332839 -0.40960395 -0.15598601 0.05431664 0.32661384
0.067222275 0.026620016 -0.084635645 -0.10698685 0.006294848 -0.5576369 -0.1515744 0.18637583
0.18676105 0.07439331 0.29999214 0.2306688 -0.0033805675 0.15951379 -0.09972768 -0.13189179
0.35345265 0.33274972 0.23186669 -0.037726853 -0.012733547 0.0025310575 0.15330583 -0.15879847
0.024349509 -0.43557 -0.011005462 0.05403241 -0.40792495 -0.40785372 0.07261617 -0.59638184

bias f4 [10]
00000000: 1963 70bd 3164 dbbd e80b d33c 4eaf a5bc
00000010: a14e 573c 5629 4a3d 44f4 273d 63d5 37bd
00000020: 11e2 7c3d 7f0e 87bd
-0.058688257 -0.10712469 0.025762513 -0.020225193 0.013141305 0.049355827 0.041004434 -0.044881236
0.06173903 -0.06594562

weight f4 [10, 32, 3, 3]
00000000: b568 7fbe a4c7 a23e fb73 50be f83f 2e3e
00000010: be41 a6be 2efd 88bf 9ee5 c9be 7209 b2bc
00000020: b85d 3140 c853 a5be 5ecc 7b3d 66b1 e1be
00000030: cb3c 60be f36f 393e 1751 dabd c1a4 6b3e
00000040: 8361 e33e 9776 07bf ffbc f83d e82f 3a3e
00000050: 69ad 3bbe 2617 7d3e 97c5 723f 458a 06bf
00000060: a56e 62bd 972a b3bf ff54 b53f f1aa 53be
00000070: fa63 0c3e 301f 3dbe 6387 ea3d 1ec4 dcbe
00000080: 7dfd 49be c8fe 873d 106f a33d bdd7 563f
00000090: 4a1d 04bd d47c 65be 77e3 783e 6b42 05be
000000a0: 607a 1fbf d503 873d 64a9 54bd 3b70 81be
000000b0: 0877 cd3f 255e cf3d fd32 a6be 8d5d 713e
000000c0: 7305 4ebe b32d 7abf d373 3ebf 1f6b 9fbe
000000d0: abe5 573e fe4a e83f 9d44 f2be cf46 9abb
000000e0: a6db 22be 55b7 e53d d07e 01be aac9 13bf
000000f0: 0160 d43d 9fbc 8e3f 09a6 3040 b1c1 423e
00000100: 8d1a b3be a2df 9ebe 0462 92be 160e 0abf
00000110: 2ac0 1a3e 698b 083e f171 453f 0788 943f
00000120: 534b 953d e1d9 1fbd 5f8a 9a3e 19da c2bc
00000130: c372 b5be 6de9 073d 0bbe f5bc 9605 253f
00000140: 4c49 0240 61f3 353d b093 e1be e765 1d3f
00000150: 6b96 3fbd 154e 31bf aa4e b7be 1d96 583e
00000160: 3c71 7a3f a3f5 9f3f 96d7 8f3d ddcb f03d
00000170: 9850 1e3f 6e90 013e 97b5 003f ffec ba3f
00000180: 65d8 4f3e 3375 eabd be97 c2be 0dec ae3e
00000190: 5adc 823d 8174 7b3d 6226 683d 89cf d13d
000001a0: a7cc 073f ecd5 d1bb 5242 67bd 9427 b93f
000001b0: 8372 f03e f8d0 abbe 94a1 a73e 28cc 073e
000001c0: b949 913f 77d3 9b3f 232c 5f3e 58a3 65bf
000001d0: 3634 03be 77e3 7cbf 4f2e 25be 9a26 a6be
000001e0: 66a8 8b3e 77ed 41bf 99bb 5fbf fa51 783f
000001f0: 4413 2c3e 573a 0740 b4a3 e7bc 2c52 63be
00000200: 1efe f6bd 7af5 f23c 1cef 063e b625 1a3f
00000210: 99af 5b3d d5ef 073d 913a 343f 3843 2d3e
00000220: 4d4e 803e f354 b83e aea2 673e f791 5d3e
00000230: 7653 953e acb3 433b 4a9e 623e 7dcb 973f
00000240: 798b a5be 9859 3cbf ab0d dc3e 2364 85be
00000250: 3e7d 0bbd d20b 273e 755f d23d 64bb 3dbe
00000260: 567d c43f 4527 273f 278c 293d f1e3 8ebe
00000270: 91f2 0a3e d0f9 923e 39c3 ff3e 5fdf 85bd
00000280: b401 38be 7d0c 4340 9f44 3bbe 60cb 52be
00000290: 3d0d 643d bcb5 9c3d 4690 ba3f f04d b63e
000002a0: c125 e33e cded ed3e 12fe 1a3e 1edb 493c
000002b0: 9504 a1bc 7fef 77be 27cb 3a3f 4c29 98bf
000002c0: 6609 073f 14a2 a43e d8c4 103f 6a03 0c40
000002d0: a0da 08bf 6495 b8be cdfd cb3d 3e24 733e
000002e0: a2c7 283f 3983 1a3d 4c83 4e3d 3ea0 58be
000002f0: 6b79 ba3f e2e2 9fbe 7425 d13e 085d 833e
00000300: e813 e5bd 4b60 2b3e 81fb 58bf 6e0c da3e
00000310: d831 8c3e a60f 1d40 b885 28be 5199 783e
00000320: 4eff 48bd c7d2 d8be 9f1e 5f3f 563e 22bf
00000330: 6d2c c53d da3c 44bf 44a2 113e a2b0 b73b
00000340: b0e4 253c cf42 f03e 07e0 623f 54e3 183f
00000350: 3ddb f9be 0e0f c23e dd8f c03e f31a 1440
00000360: 83ea f73c 13fa 3d3d 25d6 323e 68b0 a8bd
00000370: 8783 a73e 3091 803e 6eb1 693e 3ca9 a23f
00000380: 9134 dc3e 44dc 873d 046f 733e 3e12 bb3d
00000390: 2f13 b2bd bfd1 573e e6f8 eb3e 89fa fd3d
000003a0: a740 fc3e 73df d0bf ad41 f33d 2c15 ca3d
000003b0: 2127 b9be 4fad de3e 6881 55bf dce0 abbe
000003c0: e19e 10be 27e8 7d3f 8c4b 2e3f 6791 20be
000003d0: 87be 20c0 95cd 2c3f 0b32 f2bd ebf1 243c
000003e0: c1f5 8d3d 07a6 5dbe 0e60 e13e 57c2 57bf
000003f0: 21e8 4a3e a673 313d 776f 483f d0a2 59be
-0.24942286 0.3179294 -0.20356743 0.1701659 -0.32472032 -1.0702264 -0.39432997 -0.02173302
2.7713451 -0.32290483 0.061474197 -0.44080657 -0.2189819 0.18109111 -0.10659998 0.23012067
0.44410333 -0.5291533 0.12145423 0.18182337 -0.1832787 0.24715862 0.9483275 -0.5255473
-0.0552813 -1.3997372 1.4166564 -0.20670678 0.13710013 -0.18468928 0.11451604 -0.43118376
-0.19725604 0.066403925 0.07980168 0.8392294 -0.032254495 -0.224109 0.24305521 -0.13013618
-0.62296104 0.06592528 -0.051919356 -0.25280938 1.605195 0.101253785 -0.32460776 0.23570843
-0.20119266 -0.9772598 -0.74395484 -0.31136414 0.21083705 1.8147886 -0.47317973 -0.004708148
-0.15904102 0.112166084 -0.12646031 -0.5772959 0.10369874 1.1151313 2.760134 0.190192
-0.34981194 -0.31029993 -0.28590405 -0.53927743 0.15112367 0.13334431 0.77126986 1.1604012
0.072897576 -0.039026145 0.30183694 -0.023785638 -0.3543912 0.033181597 -0.029997846 0.6446165
2.0357237 0.044421557 -0.4405799 0.61483616 -0.04677431 -0.6925977 -0.35802203 0.21151014
0.9782903 1.2496837 0.07023542 0.11757634 0.61841726 0.12652752 0.50277084 1.4603575
0.20297392 -0.11448135 -0.38006395 0.34164467 0.06389685 0.061390404 0.05667723 0.10244662
0.5304665 -0.0064036753 -0.056459732 1.4465203 0.46962366 -0.33557868 0.32740462 0.13261473
1.1350623 1.2173909 0.2179418 -0.8970237 -0.12812886 -0.98784584 -0.16130947 -0.32451326
0.27276915 -0.7575297 -0.87395626 0.97000086 0.16804224 2.1129358 -0.028276302 -0.22199315
-0.12060188 0.029658068 0.1317715 0.6021379 0.05363426 0.033187706 0.70401865 0.16920173
0.2505974 0.3600231 0.22620651 0.21637712 0.29165238 0.0029861731 0.22130695 1.1858975
-0.32332972 -0.7357421 0.42979178 -0.2605296 -0.034054987 0.16313103 0.10272113 -0.18528515
1.535075 0.65294296 0.041393425 -0.2790828 0.13569094 0.28706217 0.4995363 -0.06536745
-0.179694 3.0476372 -0.18287896 -0.20585394 0.055676688 0.076518506 1.4575279 0.35606337
0.4436474 0.4647049 0.15135983 0.012320308 -0.019655505 -0.24212454 0.72966236 -1.1887603
0.52748716 0.32154906 0.5655036 2.1877084 -0.53458595 -0.36051476 0.09960518 0.23744294
0.65929615 0.0377228 0.050418183 -0.21154878 1.4568304 -0.31227785 0.40848887 0.25656915
-0.111854374 0.16735952 -0.84758765 0.42587608 0.27381778 2.45408 -0.1645726 0.24277236
-0.049071603 -0.4234831 0.871561 -0.6337637 0.09627614 -0.7665535 0.14222056 0.005605773
0.010125324 0.4692597 0.8862309 0.59721875 -0.48800078 0.3790211 0.3760976 2.3141448
0.030263191 0.046381067 0.17464502 -0.08236772 0.32717535 0.2511077 0.2282159 1.2707896
0.43008855 0.06633809 0.23772818 0.09134339 -0.08695065 0.21076106 0.46088332 0.124013014
0.49268076 -1.6318191 0.11877761 0.098673195 -0.36162665 0.434916 -0.83400583 -0.33569992
-0.14123107 0.9918236 0.68084025 -0.15680467 -2.5116289 0.67501193 -0.11825951 0.010067443
0.069316395 -0.21645366 0.44018596 -0.84280914 0.19815113 0.04332318 0.7829508 -0.21253514

bias f4 [32]
00000000: 8bfc 013e b605 043f 1db5 f2bb 3535 ac3d
00000010: 2ff8 33bd 7448 273e ce3c 823d cb86 473c
00000020: 4015 ce3d f95e 053e 8236 3a3e 509a 6f3e
00000030: 71ec 8d3e ac52 633e ed0f 4c3e 01ac 933e
00000040: a093 b8bd 29d6 04be d8d0 113e 75c7 c3bc
00000050: 3d59 673e 96be 2d3e e754 b13d 66ab 04bf
00000060: 4cad 4f3d b40c 003f 206f e63e 1638 1f3f
00000070: c410 693e 0f80 363e 7359 f23e da3b f23e
0.12693994 0.51571214 -0.0074068443 0.08408586 -0.04393786 0.16336232 0.06359254 0.012178133
0.10062647 0.1302451 0.18184856 0.2339871 0.27719453 0.22199506 0.1992795 0.28842166
-0.09012532 -0.1297232 0.14239824 -0.02389882 0.22592635 0.16967234 0.08658772 -0.51824033
0.05070238 0.50019383 0.45006657 0.62194955 0.22760302 0.17822288 0.4733387 0.47311288

weight f4 [32, 32, 3, 3]
00000000: 3725 1bbe 8d28 503c d6cb f5be 053c a23e
00000010: fe58 0d3f 5afe 1b3d 2107 dc3e f53c f1be
00000020: 2a82 b7bf d786 99be 015d 5f3e 3513 b93d
00000030: 2ad8 26be 0744 65bd bbb0 353f c87b 473e
00000040: f185 0f3e fd6c 5c3f 8270 e6be 6a4d 80be
00000050: c1ca e43e 4cab afbe 4aa1 bcbe 77d0 7e3e
00000060: 1351 833e 9a69 513f 3a5d 723f 8543 12bf
00000070: 2a70 de3d 0844 05be 4c68 063d 94e4 e13d
00000080: d8c8 843e ea42 713e 3995 ec3a 937d 293f
00000090: 8866 d63e a82c 2e3f 399b a43e 9e63 03bf
000000a0: f57f 483e 6866 f33d 3733 253e 14eb 9c3e
000000b0: dc4a be3f b176 25be 800b 903e 66da 963e
000000c0: a392 90be bfee 8ebe e155 0a3e d7c0 b83e
000000d0: 34ff 173f 7610 1b3f 8ba6 9f3e db82 32bd
000000e0: 704d 483f f624 bebe b037 dd3e 25b5 a93e
000000f0: c46f f4ba cca6 9c3c 9ef2 883e 687c 9fbd
00000100: 5403 c03b 22bd a53e 6d84 0bbf 9cae 9dbe
00000110: 1cd4 0e3d a876 933e c91e 163f 27a4 3d3f
00000120: 87c3 4fbe 24ae 31bc f2e8 0ebf a505 0b3e
00000130: 836f 0b3f cb95 8abe 1ef3 55be 4840 cebe
00000140: fbe2 0dbf 476f 0fbe feb3 e33d 1b60 ca3e
00000150: 1afa 0f3d 2b0e 34be 341c f73e bf2b 5c3d
00000160: ec20 933e 65fa 193f 2d86 1ebf 8c9c b4bc
00000170: f6a1 ad3c 8c0c 803d b72a 1a3f 9146 2bbe
00000180: 53b3 d8be e2ae 1fbe b649 09bd fed8 6cbe
00000190: 8a77 a33e adf1 df3e f65f 85be b9b3 18be
000001a0: f122 9f3e 0215 d93e 9d3a 0e3f b18b 033f
000001b0: a740 97be b242 92bc a863 943d 8b53 e13c
000001c0: c5e1 d9bb 8eed 3b3f bcfb edbb c03c 1b3e
000001d0: 3029 2f3f 3608 87bf c39f 303c 4c28 3fbf
000001e0: 37df 45bf a19f f6be 3305 63be 5c73 cf3e
000001f0: 00f1 803e 34d8 693f fe34 24bf 6dd1 05be
00000200: b669 24be 323b 0cbe 2e4e 113f c97c 3ebe
00000210: 6e0f 86be 1b03 f1bd b20b 44bd e446 52be
00000220: 03ee 683e e120 4ebf eb63 a43e 3ad8 443f
00000230: 00b1 2fbe dcb2 39bd 83dd e2be f524 babe
00000240: e923 1cbc 815a 573e 1433 823d 5b30 bfbe
00000250: 2105 df3d cc77 edbe f321 f03e 6439 083e
00000260: c608 c33f eb31 6bbf c8ee 29bf b1b2 54bf
00000270: 99b9 ef3e e35b 383f dfae 9d3f a3e4 99be
00000280: 408b a8be 2bbe 17bf ff03 523e 922b 3a3f
00000290: 661d 9c3d 4638 5bbe 1271 36bd c9c5 3d3e
000002a0: 5a08 0f3f 8ea2 303f 5705 ba3f aa1a 20bf
000002b0: 12e6 a7be c70e 8abf c7c1 533e a977 993f
000002c0: 6a0b 373e 7245 95bd 0f62 18be a640 1bbd
000002d0: aa73 023c 7487 ed3d f040 04bf 821a 733e
000002e0: 981a 0f3f 5f28 8ebd fa08 8f3e 9e0c bcbe
000002f0: 2848 8ebf d79e a5be 822f 233f a660 e0bd
00000300: 11ee 863e be7c d4be 0129 b63e 78a1 263e
00000310: c9a1 2d3f 08c1 273f ab60 00be ec6b 883e
00000320: 5f26 ee3e 7d6e 36bf 7c19 1bbe 28f2 073e
00000330: 0329 e73e 6162 2d3f d2d6 733f 7fed 83be
00000340: 1eb1 0b3f 1cac 0f3e 9491 bfbe 1425 11be
00000350: bdc6 88bd d1d4 233f 7521 153f 65a9 5a3f
00000360: 5f67 80bf 2a1d 2dbe 3182 7d3e 0c87 56bf
00000370: 8912 803f 2c77 343f 4f28 8f3e cc39 ab3e
00000380: d487 7d3e 2766 4cbe cbe4 2c3e a1de be3e
00000390: 9c74 65be 6b29 04bc 83e0 0d3f 69aa d63e
000003a0: bd6e 0a3e 7801 743f b33a 95be b5f2 e83c
000003b0: 01e2 1f3f 6c5e 83be 98fd b7be 3ac0 0c3e
000003c0: b162 ca3e f78f 543f ff15 3e3f 2921 88be
000003d0: 53e9 223e 0b3b 45bf 9773 bd3e 1253 283f
000003e0: 9872 dd3d 4604 95bd 8f8f c7be 2c9a 2fbf
000003f0: 1548 cfbc a49c d83e 851a a53e 25c2 abbe
-0.15150915 0.012704981 -0.48007077 0.31686416 0.55213916 0.038084365 0.4297419 -0.4711682
-1.4336598 -0.29985687 0.21812822 0.090368666 -0.16293398 -0.05597308 0.70972794 0.19480813
0.14015938 0.861038 -0.45007712 -0.25059062 0.4468594 -0.34310377 -0.36841804 0.2488421
0.25647792 0.8180176 0.946735 -0.57134277 0.10861237 -0.13014233 0.03281431 0.11029926
0.25934482 0.23560682 0.0018049843 0.66207236 0.418751 0.6803689 0.32149675 -0.5132388
0.19580062 0.11884767 0.16132818 0.306481 1.4866595 -0.16158558 0.28133774 0.294635
-0.28236875 -0.27916524 0.13509323 0.36084625 0.59373784 0.6057199 0.3118175 -0.043581825
0.7824316 -0.37137574 0.4320655 0.33146015 -0.0018649031 0.019122504 0.26747602 -0.077874005
0.0058597717 0.3237086 -0.5449894 -0.3079728 0.034870252 0.28801465 0.58640724 0.740786
-0.20289432 -0.010844741 -0.55824196 0.13576372 0.5446703 -0.27067408 -0.20893523 -0.40283418
-0.5542447 -0.14007293 0.11118315 0.39526448 0.035150625 -0.1758353 0.48263705 0.053752657
0.28736055 0.60147697 -0.61923486 -0.022047304 0.021195393 0.06252393 0.6022143 -0.16726138
-0.42324314 -0.15594056 -0.03351756 -0.23129651 0.3192714 0.4373907 -0.26049775 -0.14912309
0.31081346 0.4239884 0.55558187 0.5138503 -0.29541513 -0.017854068 0.072455704 0.027505657
-0.0066492283 0.73409355 -0.007262675 0.15159893 0.6842222 -1.0549381 0.010780278 -0.74670863
-0.77293724 -0.48168662 -0.22169952 0.405177 0.25183868 0.91345525 -0.6414336 -0.13068171
-0.1605595 -0.13694456 0.5675992 -0.1860229 -0.26183647 -0.117681704 -0.047862716 -0.20534855
0.22747044 -0.8051892 0.3210748 0.76892436 -0.17157364 -0.04533659 -0.44309625 -0.3635632
-0.009530046 0.21030618 0.06357399 -0.3734158 0.1088965 -0.4638046 0.469009 0.13303143
1.5237052 -0.91873044 -0.66379976 -0.8308516 0.46821287 0.7201521 1.2318991 -0.30057248
-0.3291874 -0.5927455 0.20509337 0.72722733 0.07622795 -0.21408185 -0.044541426 0.1853248
0.5587212 0.6899804 1.453288 -0.62540686 -0.32792717 -1.078576 0.20679389 1.1989642
0.17875448 -0.07288636 -0.14881156 -0.03790345 0.007962147 0.11598101 -0.51661587 0.2374058
0.55899954 -0.06941294 0.27936536 -0.36728376 -1.111577 -0.32347748 0.63744366 -0.10955934
0.26353505 -0.4150142 0.35578158 0.16272533 0.6782499 0.6552892 -0.12536876 0.26644838
0.4651365 -0.7126234 -0.1514644 0.13275969 0.45148477 0.6772824 0.95249665 -0.25767133
0.54567134 0.14030498 -0.37415755 -0.141743 -0.06678531 0.6399661 0.58254176 0.85414726
-1.0031546 -0.16905656 0.24756695 -0.83799815 1.0005656 0.7049434 0.2796044 0.33442533
0.24758846 -0.19960843 0.16884153 0.37279227 -0.22407764 -0.008066515 0.554207 0.41926888
0.13518806 0.9531474 -0.29146346 0.028436044 0.6245423 -0.25657976 -0.35935664 0.13745204
0.3952842 0.8303217 0.74252313 -0.265878 0.15909319 -0.7704322 0.3700225 0.65751755
0.10812873 -0.07276206 -0.38976714 -0.6859462 -0.025302926 0.42307007 0.32246795 -0.33546558

bias f4 [32]
00000000: 3a25 413d a3bd 9cbe 1fe7 62be 21ed 8fbe
00000010: c836 98be 18f3 13be ff5b 42bf d453 56be
00000020: c35a e2bc dd22 2dbe bddf e13c 4d23 41be
00000030: c33e c1be 29fb c0bd caaf d6bc bbf9 b9bd
00000040: 15a3 dfbd feaa 0abf 5663 35be dabb ddbd
00000050: b448 b5bc deee 6cbe 27d7 92be ead4 41be
00000060: 7905 eabd 99cf 81be c916 3cbe 72c1 d2bd
00000070: 383f 74be 6b20 b7be b3a9 a63d 7a0d 53be
0.047154643 -0.3061343 -0.22158478 -0.28110602 -0.29729295 -0.14448202 -0.75921625 -0.20930415
-0.02763117 -0.1690783 0.027572507 -0.18861122 -0.37743196 -0.09422905 -0.02620687 -0.090808354
-0.10919777 -0.54167163 -0.17713675 -0.108268455 -0.022129394 -0.23137996 -0.28679773 -0.18928877
-0.11426825 -0.25353697 -0.18368067 -0.10290803 -0.23852241 -0.3576692 0.08137836 -0.2061061

weight f4 [32, 32, 3, 3]
00000000: f84a 3abe c3d1 113e af59 7d3e 81a6 2bbd
00000010: 320d cf3e 600d 473e 05e6 55bd 04e7 653d
00000020: d66c 5fbd e0f6 debe 789d 53be 6c7d aabe
00000030: 8b5a efbe 8dd3 d9be f224 e5be eeaf 37bf
00000040: 0410 d6be 8702 26be 1e01 02bc 7bec 91bc
00000050: be4f ddbc b8da 9a3e 969e a53e 07bb 693e
00000060: ab66 e83e 0ed4 983e 8ec2 0f3e a59d a43d
00000070: d019 8e3c 9d76 d63b bfd1 9a3e 967d 853e
00000080: 4305 233e f053 d63e 27e9 a03e 5bb5 f23d
00000090: 01ca b8bd 43c1 d5bb 6817 9abc 0abc afbe
000000a0: 76c8 91be 6bab 94be 4b12 10bf 1d51 1cbe
000000b0: 58cf 93bd f21f 28be c4f5 773d 7b34 fabd
000000c0: 68e0 b2be 0883 babe 7126 85bd 91da e0be
000000d0: 9b6a 2abe ff03 f4bc 989c 48be da41 a6bd
000000e0: a0e0 07be abe1 a4be 2f8a d7be 2751 06be
000000f0: ff69 0abf bf38 9dbe 53fc d2bc 2dde 20be
00000100: 4ff3 093e 3441 733e 8914 10bf be5d 30bf
00000110: c9f6 213e af0f a8be 3f3b 62be 5c79 4c3e
00000120: 2a92 d1be 4d5f 33bf b6d0 ca3d 887a a7be
00000130: 9efa 03bf f37b 053f 59e4 473f 135e 533f
00000140: 9a28 0e3f 9eaa be3e 87c0 39bd 5d7b c93d
00000150: 038f ff3e 5d27 823e bce9 5e3e bda5 383f
00000160: f9e7 fd3e 04bd 7d3e 0824 ab3d 72b9 823d
00000170: 9e4c 9e3d 3787 103f 1c40 c73e 649f 503e
00000180: dc47 d23e f4af a63e 2959 2c3d dc88 85be
00000190: 9ae9 88be 9482 0abf 5929 2ebe e789 2bbf
000001a0: db39 21bf 50c0 ddbe c88b c3be ea2c 1cbe
000001b0: 06af 6fbe e46d c63c 8932 2d3d 044b bfbe
000001c0: 5e49 e3be b135 17be dd4a 1cbf ad27 49be
000001d0: 51ab 813b 9745 2abe 3b34 9dbd a3dd 4ebf
000001e0: e019 0cbf 7b1e 07bf f34d 10be 2f06 383d
000001f0: 136c edbc 78b3 3c3e 025c 40be 1bc1 97bb
00000200: b170 00be 0926 dfbe 7e98 61be 06d5 80bd
00000210: 0257 bcbe 8758 ff3b aa61 6ebd 480c 303e
00000220: b84e ebbc 2175 9f3c e1bd 7e3e 160f c83e
00000230: 54e4 093e 10c3 7c3e 5dfa 8f3e bf7c 73bc
00000240: b862 e13e 10be 30bd 3dbe 44bf 4ea7 14be
00000250: cd21 4abf 56c2 80bf 720e 8fbe 08db 32bf
00000260: 8135 57bf 45b4 25be 82a8 cabd 9623 7abd
00000270: 5107 26bf 617d e0be f5bf 0ebe 72c3 e0be
00000280: abcf ecbe fdfb 4bbd 6486 eebc ba77 0dbd
00000290: 70b0 16be 0669 afbe 7066 a6be ef8a 83be
000002a0: 67a6 d7be d1b5 dbbe f486 37be 3cd0 673e
000002b0: f9fb eb3d 27f9 84ba 72a1 3a3f 24cf 993e
000002c0: 5d94 8d3d ca3b 123f 6779 623e 035d 4b3e
000002d0: 427f ad3e 7618 a93d e40e dc3c ba2f f23e
000002e0: ef3e c53e 8805 883e 330e 533f 0ebe b93e
000002f0: 6bb8 243e e3c5 5dbe d3bd 0a3d 1d8c 74bd
00000300: 1e97 c0be 049e adbe 8092 603d e207 aebe
00000310: 319d 4fbe f5da b63d 6202 c43e 0b2a bf3d
00000320: f3ad 583e ca29 2f3f 525d 053f de31 9a3e
00000330: 08fb 083f 1c07 db3e 3de5 4c3e 780f ebbe
00000340: 0db9 9dbe 93aa 0fbf d694 3fbf 7478 c9be
00000350: 9386 a8be d164 3abf f148 b9be 2a41 9cbe
00000360: 46b6 30be db83 14be fdd5 62bc ea88 19bf
00000370: 578b d5be d170 31be 0e85 f4be 2b30 d0be
00000380: f014 433d d03a 3dbe 02af f33b e55f ba3d
00000390: 813e b3be 095a 44be 2bfb c03d 6418 23bf
000003a0: f741 3cbe 871d 2ebd c48c 9a3f 9eae 9b3e
000003b0: dcb7 073f 6988 873f 1ea7 033f 0adf c33e
000003c0: 9a7f 893f 4d90 223f 4878 613e 0091 bebe
000003d0: 5c25 6fbd c119 f9bc eff1 39bf fda1 08bf
000003e0: b1a9 96be 4440 17bf d1a3 cebe 87bd 883d
000003f0: 9c92 f93e 2eef 283d c8db ed3d 0223 cf3e
-0.18192661 0.14240174 0.24741243 -0.041906837 0.40439755 0.19438696 -0.052221317 0.056128517
-0.054547153 -0.43547726 -0.20665538 -0.33298814 -0.46748766 -0.42544213 -0.4475475 -0.7175282
-0.41809094 -0.16211902 -0.007934837 -0.017812958 -0.027015563 0.30244994 0.32347554 0.22825252
0.4539083 0.29849285 0.1403906 0.08037881 0.017346293 0.0065449015 0.3023815 0.26072377
0.15919976 0.41860914 0.3142788 0.11850997 -0.09022904 -0.0065232827 -0.01880999 -0.3432315
-0.28473252 -0.29037032 -0.5627791 -0.15265317 -0.07217282 -0.16418436 0.060537115 -0.12217041
-0.34936833 -0.36428094 -0.06501473 -0.43916753 -0.1664223 -0.029787062 -0.19590986 -0.08118029
-0.13269281 -0.3220342 -0.42097613 -0.13116895 -0.5406799 -0.30707356 -0.025755083 -0.15709753
0.13471721 0.23755342 -0.56281334 -0.6889304 0.15816797 -0.32824466 -0.22092913 0.1996817
-0.40931827 -0.7006729 0.0990309 -0.3271067 -0.51554286 0.52142256 0.78082806 0.8256542
0.55530703 0.37239546 -0.045349624 0.09837983 0.49913797 0.25420657 0.2176885 0.72127897
0.49591044 0.24779135 0.08356482 0.06383027 0.07729457 0.5645632 0.389161 0.20373303
0.4107045 0.32556117 0.042077217 -0.26080978 -0.26740724 -0.54105496 -0.1700796 -0.670073
-0.62978905 -0.43310785 -0.38192582 -0.15251508 -0.2340661 0.024222322 0.042284522 -0.3736192
-0.44391912 -0.14766575 -0.6105173 -0.19644041 0.00395719 -0.16628109 -0.07675978 -0.8080694
-0.5472698 -0.52780885 -0.14092235 0.044927772 -0.028982198 0.18427837 -0.18785098 -0.0046311743
-0.12542988 -0.43583706 -0.22030827 -0.06290631 -0.36785132 0.0077925357 -0.05819861 0.17192185
-0.02872406 0.019465031 0.2487712 0.3907401 0.13466007 0.24683785 0.281207 -0.014861285
0.4402063 -0.043150008 -0.7685278 -0.14516947 -0.78957826 -1.0059307 -0.27940708 -0.69865465
-0.84066015 -0.16182049 -0.098954216 -0.061069094 -0.64854914 -0.43845657 -0.13940413 -0.43899113
-0.46252188 -0.04980086 -0.029116817 -0.03453801 -0.14715743 -0.34259814 -0.3250003 -0.25691935
-0.42119142 -0.42912152 -0.17922574 0.22638029 0.11522669 -0.0010145054 0.72902596 0.30040848
0.06913064 0.5712248 0.22116624 0.198597 0.33886153 0.08256619 0.02686257 0.47302037
0.38524577 0.2656672 0.8244354 0.36277813 0.16085975 -0.21657519 0.033872437 -0.059703935
-0.37615293 -0.3390962 0.054827213 -0.3399039 -0.20274808 0.089284815 0.38283068 0.09334191
0.21160106 0.6842314 0.5209552 0.3011617 0.53508043 0.42778862 0.20009322 -0.4591024
-0.30805245 -0.5611965 -0.7483648 -0.3934971 -0.32915172 -0.72810084 -0.36188462 -0.30518466
-0.17257032 -0.14503424 -0.013844964 -0.5997454 -0.4170787 -0.17328192 -0.47757763 -0.4066175
0.04762739 -0.18479466 0.007436634 0.09100322 -0.35008624 -0.1917497 0.094229065 -0.6370909
-0.18384539 -0.04250863 1.2074208 0.3040666 0.5301492 1.0588504 0.51426876 0.38256103
1.0742066 0.63501436 0.2201854 -0.3722 -0.058385238 -0.030407788 -0.72634786 -0.53372175
-0.2942634 -0.59082437 -0.40359357 0.066767745 0.48744667 0.041243725 0.116141856 0.40456396

bias f4 [32]
00000000: 5535 433e ccfd 73be ce17 013e 82aa 4a3e
00000010: 3418 4cbe 25c5 67be 0478 4cbe 1b97 fcbd
00000020: 0caf 74bf f184 443e 0cbf 253e 85e7 05be
00000030: 5576 85be 2383 84be 7bfe 5cbe 717e 373e
00000040: 305e 22be 647d 34be 689a 48be b6b4 8e3e
00000050: 8d32 903e 83c5 16be 6e64 823e 3413 8ebe
00000060: d7cd 77be 369f 57be 7f8b c63e 62e5 5bbe
00000070: 4087 8f3e a0b6 5ebe 487a 4fbe 5222 973e
0.19063313 -0.23827285 0.12606737 0.19791606 -0.19931108 -0.22633798 -0.19967657 -0.123335086
-0.955796 0.19191338 0.1618616 -0.13076599 -0.26066843 -0.258813 -0.21581452 0.17919327
-0.15856242 -0.17625958 -0.19590151 0.27872247 0.28163567 -0.14723782 0.25467247 -0.27749026
-0.24199615 -0.21056828 0.38778302 -0.21474221 0.28032875 -0.21749353 -0.2026149 0.29518372
