DL-prototypes/Pre-trainedModels/hierarchy_model.pth (torch_old, 215408 bytes, 21 tensors)

weight f4 [32, 1, 3, 3]
00000000: eadb 4040 15e1 433f 65d5 683f 4af5 1440
00000010: 76a2 0340 c69d 9340 f6bf a33e 1607 1f3f
00000020: eff4 6a40 3b27 16bf 0098 0b3f 3fcd b63f
00000030: 9766 1d3e 876e 213f 8c73 b63f 5541 2d3f
00000040: 197f c03f 70c7 ae3e 6d04 303d 63e1 403f
00000050: 6b06 42bf 98d1 68bf 90a0 5e3b 4265 b3bf
00000060: 539d 13c0 ff1d 8dbf 2886 c4bf b13d c2bf
00000070: f289 06c0 9ca1 bcbf 790c 203e cae2 6dbf
00000080: 7b93 493f 9c69 743f 42ca 6c3f 8b98 d43f
00000090: 7695 4dbe fe99 323f b745 ab3f cd0b 2bbe
000000a0: 8c54 153f 7dae 8d3f 3302 7c3f 1bb3 d63f
000000b0: 79e8 4e3f a584 953f 7a71 ca3f c391 903d
000000c0: 313f 333e e652 4fbf fbde 1cc0 c4cb 31c0
000000d0: f4a1 a2bf fe10 3ebf 0e34 813f eae2 723f
000000e0: 937e f8bc 1774 213f 367e 443e 6329 8abf
000000f0: e37a 1abf 644b b3bf 37c8 a2bf 2b12 a5be
00000100: e37c bcbe fb81 77bf 38e0 3bbe 72aa 91bf
00000110: 0e1b 57bf c065 203d b5b2 6f3f 89f9 623f
00000120: 0bc4 1fbd a538 e9bf 159b f2bf 9218 8cbe
00000130: 1a90 acbf 3a60 32bd ef75 ad3f 8536 b33f
00000140: ff39 973f acaf 243e c9e8 4b3f 4d01 853f
00000150: 8167 33bf 6f58 7bbf fc02 853f eea0 edbf
00000160: 03f1 9bbf d3fe 563f f9f9 2c3f 46c0 86bd
00000170: 17e9 79be 6b3d 293f bbce 88bf efd6 adbf
00000180: a464 263f 245a f7be 7f65 41bf 95c5 ebbf
00000190: e8f4 ea3d 6220 2f3e 1661 e2bf 0515 6ebd
000001a0: bdf6 e1be c30f e0bf 126e cdbf 87a1 e4bf
000001b0: fe64 4e3e 775b b93e 7245 6d3f 4975 d9be
000001c0: 03de 08bf baa7 05bf d368 48bf 8427 cfbe
000001d0: 093b 8dbe 0e61 1dc0 46a2 85bf b0cb 90c0
000001e0: e165 e3bf 1dea 3a3f d969 8fc0 352f 51c0
000001f0: e8f5 1cc0 46f7 abc0 dd0a 69bf d3aa 453e
00000200: c0d9 d03f c03b cfbf d1de 2fbe 61ae 5e3f
00000210: 1d03 99bf bee7 be3e 6b56 233f 76df 80bf
00000220: 5f03 93be 9867 36c0 9feb 68bf c2fd 11bf
00000230: 1961 bbbf 5df4 75bf aa79 9d3e d2b1 42bf
00000240: 5264 213f 58d0 6a3f 0fe1 f1be c63a e63f
00000250: 451c 0d40 62e7 14bf faad 32bd e4ec 2fbf
00000260: 7b11 dbbf c592 e2bf 18b9 55bf 0fcf c2bf
00000270: 2c63 28bf 6d0f 633f c4bd d43e 760c 133f
00000280: db7f 2140 e9cc a63f 70aa 853f 67fe b33e
00000290: f644 b73f bfff fcbe 11a0 9abf 2a16 943f
000002a0: 495d b4bf 120a cebf 2d84 e6bc 8b10 40be
000002b0: 8220 853f d458 9f3e 3ee7 85bf 1135 15bf
000002c0: 95da b3bf 9337 643c 3962 223f b0f2 5dbf
000002d0: d52b 14be 825e 5a3f 3ed5 df3e 97b2 7abd
000002e0: 90a8 fa3f fb9b 3a3f 2124 3bbf 0cd0 7ebe
000002f0: 4244 bcbf 7d4f 5fbc dbfa 19bf a8b3 76bf
00000300: cf36 5f3e ab8f 8dbe 2edf 37bf b9dc 303d
00000310: 8c21 1b3d bcdc a8bd 0fe2 693f 12b7 0e3f
00000320: 03f4 133e 5811 933d ba8d 02bf 011c 6ebe
00000330: dc10 24bf 8f36 acbf 6638 5bbf cb37 a6bf
00000340: c585 88bf 9f02 7c3d 13dc febe cdc4 5bbf
00000350: b3f3 12be 3059 533e d585 ba3e 7829 a23f
00000360: 3b08 af3f 2af3 a53f aa47 9c3f 633a be3d
00000370: e29c a1be 3895 fe3e c716 1cc0 6e84 0dc0
00000380: 3534 c4bf 680c 5b40 548e d13f f74d 1e40
00000390: c748 9640 707b 783f 7920 9340 9e81 dc40
000003a0: e012 9940 74d9 a240 0aae 9a3f 9d1a a33e
000003b0: 0313 803f 33b9 3c3d e3fd d8bf 90de 1abf
000003c0: 1c75 443e 48f5 aebf e27e 73bf b8c2 05c0
000003d0: c43f b63e 9278 23bf 761d fdbf 044b b6bf
000003e0: 3a25 30c0 f66d 6e3f bb15 633f 7a15 54bf
000003f0: e3ec d5bf 0a45 0ac0 913c 5ebf c46a 35bf
3.0134225 0.7651532 0.90950614 2.3274713 2.0567908 4.6130095 0.31982392 0.6212019
3.6711996 -0.5865361 0.5452881 1.4281386 0.15371166 0.63059276 1.4254012 0.67677814
1.5038787 0.34136534 0.04297297 0.7534391 -0.75791043 -0.90944815 0.0033970214 -1.4015276
-2.3064773 -1.1024779 -1.5353441 -1.5175077 -2.1021695 -1.4736819 0.15629758 -0.9292418
0.7874066 0.9547365 0.9249612 1.6609052 -0.20076546 0.69766223 1.338065 -0.1670372
0.58332133 1.1068875 0.98440856 1.6773409 0.80823475 1.1681105 1.581588 0.07059052
0.17504574 -0.8098587 -2.4511096 -2.7780619 -1.2705674 -0.7424468 1.0094011 0.94877493
-0.030333793 0.63067764 0.1918877 -1.079388 -0.6034376 -1.4007382 -1.2717351 -0.32240424
-0.3681403 -0.9668271 -0.18347251 -1.1380141 -0.8402566 0.039159536 0.9363206 0.8866201
-0.03900532 -1.8220412 -1.8953577 -0.27362496 -1.3481476 -0.0435488 1.3551615 1.4001013
1.1814574 0.16082639 0.79652077 1.0391022 -0.7007981 -0.98181814 1.0391536 -1.8564737
-1.2182926 0.8398258 0.6756893 -0.06579642 -0.24405323 0.6610934 -1.0688089 -1.3581218
0.64997315 -0.4831096 -0.75545496 -1.8419672 0.114724934 0.17102197 -1.7685878 -0.058125515
-0.4413356 -1.750481 -1.6049216 -1.7861794 0.20155713 0.36202595 0.9268409 -0.42472294
-0.53463763 -0.52209055 -0.7828495 -0.40459836 -0.27584103 -2.4590487 -1.0440147 -4.524864
-1.7765466 0.7301348 -4.481671 -3.2685063 -2.452509 -5.3739347 -0.910322 0.19303446
1.6316452 -1.6190109 -0.17174841 0.8698483 -1.1954075 0.3728618 0.6380374 -1.0068195
-0.2871351 -2.8500729 -0.9098453 -0.5702783 -1.4639007 -0.96075994 0.30756885 -0.7605258
0.630437 0.9172416 -0.4724202 1.7986686 2.2048504 -0.5816556 -0.04362295 -0.6872084
-1.711471 -1.770104 -0.83485556 -1.5219439 -0.65776324 0.8869541 0.4155103 0.5744089
2.5234287 1.3031284 1.0442638 0.3515503 1.431792 -0.4941387 -1.2080098 1.1569264
-1.4090968 -1.6096823 -0.028139198 -0.1875631 1.0400546 0.31122458 -1.0461195 -0.582841
-1.4051081 0.013929266 0.63431126 -0.86698437 -0.14469846 0.8530046 0.43717378 -0.061205473
1.9582691 0.7289426 -0.73102003 -0.24884051 -1.4708331 -0.013629791 -0.601484 -0.96367884
0.21798252 -0.27648672 -0.7182492 0.043179248 0.03787379 -0.08245227 0.91360563 0.55748093
0.14448552 0.071810424 -0.5099751 -0.2325287 -0.64088225 -1.345415 -0.8563293 -1.2985777
-1.0665823 0.061525937 -0.49777278 -0.8584717 -0.14350776 0.20639491 0.3643023 1.2668905
1.3674387 1.2964833 1.220937 0.0928848 -0.31565005 0.4972322 -2.4388902 -2.2112079
-1.5328432 3.4226322 1.637156 2.4735086 4.696384 0.9706335 4.597714 6.8908224
4.783554 5.0890446 1.2084363 0.31856242 1.0005802 0.046075057 -1.695248 -0.60495853
0.19185299 -1.3668604 -0.9511548 -2.0900097 0.35595524 -0.6385585 -1.9774616 -1.4241643
-2.7522721 0.9313654 0.88705033 -0.8284527 -1.6712917 -2.1604638 -0.86811167 -0.70866036

bias f4 [32]
00000000: 8a4f 043e 21cd 4abe a58c b03e 63f6 2d3f
00000010: 3477 b7be d173 80bc 7844 b03f dac5 4a3f
00000020: 6430 d43e 2bd8 4a3f 1b30 c13f 8e34 b23e
00000030: 4785 f83e 864f 533e 51c4 7d3f 81c2 863e
00000040: 757b 81be b62a 423e 0c8a 423f 5d00 173f
00000050: 346f 5abe 0559 d03f cd4f cb3f dbee ce3f
00000060: 2ed7 18be b954 8c3d 5386 b93f 4318 d93e
00000070: 6104 363f 758c af3f cece 15bd e14d 3a3f
0.12920967 -0.19804813 0.34482303 0.6795408 -0.35833132 -0.015680226 1.3770895 0.7920815
0.4144317 0.79236096 1.5092806 0.3480572 0.48539183 0.20635805 0.9912768 0.2632027
-0.25289503 0.18961605 0.7599189 0.5898493 -0.21331483 1.6277167 1.5883728 1.6166643
-0.14925835 0.06852097 1.4494117 0.42401323 0.7110043 1.3714739 -0.036574177 0.72775084

weight f4 [32, 32, 3, 3]
00000000: 071f 73be 37d3 63bd b111 19be b072 5ebe
00000010: 3529 f1bd 80fd 15bd 98a4 12bd 19f4 c53a
00000020: eeb2 d23d d835 28be 7214 ed3d dc38 5fbd
00000030: 050f 83be 35dc 18be 29ef be3d cf57 1f3d
00000040: 56ee 393e 283d 623e 1a5c 94bd 351e 17be
00000050: 246d 9f3e 486f 2f3e 8095 ad3d 9af8 2a3d
00000060: 882e d2be cea8 c8be d3a5 86be 7209 18be
00000070: 3ee4 b73e 5721 343f 7547 fb3d 2902 363e
00000080: 6924 983e a827 673d 5318 36be 6b73 f4bd
00000090: 3b14 08be c11a 6d3d bac4 e0bd d053 36be
000000a0: a85e fdbd 43ec a73c 86d5 633d bed7 4c3e
000000b0: 4957 613e 4118 8fbe d66b 4abe 43b4 a83e
000000c0: 73b8 b33d 0f52 cd3d 2d88 b43d b007 b0be
000000d0: 293b 06bf cbe6 98be 3f0d 123d 5a30 1d3e
000000e0: 7219 333e d034 afbb 8fcf 1b3e b0d2 debe
000000f0: 5c99 80be a4ed c8be 0601 86be 45e1 45bc
00000100: 2e9b 203e 4e25 263f c019 4e3d 9c01 9c3e
00000110: 805e cc3d 163e 1dbe 1199 9bbe 54d4 9abe
00000120: 9bef 2abc 0d61 9f3e 4a70 3a3f daf0 ac3d
00000130: 191d 873e aa8e 3b3e f53b 63ba 3c7a 5bbe
00000140: b374 afbe cb09 58bd 53a9 623e ba83 f23e
00000150: dea3 b13d f28e 423e 8c71 9f3d a6a1 cebe
00000160: f93c b4be 2b16 03be fbc0 71bd cef1 4c3e
00000170: 613a 0c3f f10a 1a3e 63a1 833e a518 52be
00000180: ff9b 6abe 43bd d7be 4302 b7be fc09 713e
00000190: 2858 333e 6a5f 763e 8053 9b3e 642f 883e
000001a0: 9802 5c3e ff2c a6be 9301 a0be 3627 cbbe
000001b0: 6f42 afbd 3e12 153e cc91 bb3e c011 703e
000001c0: 0664 733e 03bb fe3d 21ee cfbe 939f b0be
000001d0: b85f b6be eab2 823d 3483 a23c 2684 fa3e
000001e0: e7b2 9e3e 835a 893e c7cf a13d e1d7 e8bd
000001f0: 97dd 023d c6e2 a2be 48f1 9fbe 730c 793e
00000200: 51e9 8e3e 91c3 113d 0dd1 433e 37c7 643e
00000210: b59f e9be f9d9 38be 2fa9 37be a6bc 86bd
00000220: f4a8 17be 4eab 013f ccd0 443e 2da6 243e
00000230: a6e4 043d 6a9b eabc a9c4 f7bb 512e 95be
00000240: 0621 363d c73b d3bd 080b b6bd 12a4 63be
00000250: c7fe e8bd cf4e 49bd 54e1 753d 1651 883e
00000260: 2fae 063e 7637 39bd 0d11 62be 85e5 403d
00000270: b7ec 20be f52e edbd 9095 423e 4913 3d3e
00000280: 5760 dc3e fef9 833e c4f0 06be a109 8f3e
00000290: f0d1 c33e cf0e 153e 8363 973e 41b7 953d
000002a0: 599b 9cbe b6a5 87be 67a7 36be fe75 f4bd
000002b0: 6a48 003e 5f3c c23e 491a 7b3e 93f7 a23e
000002c0: 8d2c 3c3d e700 93be 6e48 b0be 07c9 f2be
000002d0: 579e 08be 291b 15bd c10e 25be e8d4 08be
000002e0: ece0 2fbe 6953 d23c 45a2 eebd 5048 593e
000002f0: 6152 c33d a60e b5bd bacf 303e 449d f13e
00000300: 5bdc 5a3d 403e 143e 758f babd dd4c 62be
00000310: 0c4a 80be 4c41 c0be 7f54 8a3d f17c 593e
00000320: d093 bc3e 2687 ff3d 746c 7a3e 9915 e6bd
00000330: 6900 8bbe 5a02 e2be 6e63 a5be ea3f 8dbd
00000340: 2072 a93e 83db ec3e 280a 353e c017 843e
00000350: 6865 4b3e 5402 04be eb53 29be 9746 46be
00000360: e14a 2cbe 2cc5 a73e 8a25 ab3e 5966 6e3e
00000370: 86de 513e 67f8 9cbd a4d4 b2be 40e8 c2be
00000380: d354 49be e508 30be b259 943c b6fe 0abe
00000390: aa64 3bbe 8a71 abbd 00c2 15bc 5c2f 143d
000003a0: 4401 473d e19a 193e ae28 4dbc fa06 743e
000003b0: 0287 c63e b7d8 643e 715c b83e 1294 0dbd
000003c0: 68b9 8dbe 8929 e1be 30cc c4be 9e4c 5bbc
000003d0: cdbb 673d 0125 043f 2736 243e 65bb 473e
000003e0: 04a2 563d b93d f8bd d89f cfbd d8ac a7be
000003f0: 2dc2 4cbe 0324 d23e 769f 303f 53fb 2d3e
-0.23742305 -0.055621352 -0.14948155 -0.21723437 -0.11775438 -0.03661871 -0.0358015 0.0015102654
0.102880344 -0.1642679 0.11576165 -0.054497585 -0.25597396 -0.14927752 0.0932296 0.0389021
0.18157324 0.22093642 -0.072441295 -0.14757617 0.31137955 0.17132294 0.084757805 0.04174099
-0.41051126 -0.39191288 -0.2629839 -0.14847353 0.35916322 0.7036337 0.12269489 0.17774262
0.2971528 0.056434304 -0.17782716 -0.11936077 -0.13288967 0.057886843 -0.109750226 -0.1780541
-0.1237157 0.0204984 0.055623554 0.20004174 0.22005953 -0.27948192 -0.19767699 0.3295003
0.08775415 0.10025417 0.08815036 -0.34380865 -0.5243402 -0.2986358 0.035657164 0.15350476
0.17490175 -0.005346872 0.15215896 -0.43520117 -0.25117004 -0.39243805 -0.26172656 -0.012077634
0.15684196 0.6490067 0.050317526 0.30469978 0.09978962 -0.15355715 -0.30390218 -0.30240119
-0.010433103 0.3112873 0.7282759 0.08444376 0.26389387 0.18316141 -0.0008668297 -0.21433347
-0.34268722 -0.052743714 0.22134905 0.47366124 0.08673833 0.18999842 0.07785329 -0.40357703
-0.35202768 -0.12801425 -0.05902193 0.20014116 0.5477658 0.15043236 0.25709066 -0.20517214
-0.2291107 -0.42136583 -0.35743913 0.23538965 0.17514098 0.24059835 0.30337143 0.26598656
0.21485364 -0.32456204 -0.312512 -0.39678353 -0.08557593 0.1455774 0.36634672 0.23444271
0.23768625 0.124380134 -0.40611365 -0.34496745 -0.35619903 0.063817814 0.019837953 0.48928946
0.30995867 0.26826867 0.079009585 -0.11369301 0.031949606 -0.3181364 -0.3123877 0.24321155
0.2791238 0.035586897 0.19122715 0.2234162 -0.4562966 -0.180519 -0.17935632 -0.065789506
-0.14810544 0.50652015 0.19220275 0.16079016 0.03244462 -0.02863856 -0.0075612855 -0.291369
0.044465087 -0.10314136 -0.08888823 -0.22230557 -0.1137672 -0.049147423 0.060029343 0.26624364
0.13152383 -0.045218907 -0.22076817 0.047093887 -0.157153 -0.11581222 0.19002366 0.18464388
0.4304225 0.25776666 -0.13177782 0.27937034 0.38246107 0.1455643 0.2956811 0.073103435
-0.3058727 -0.26493615 -0.17837296 -0.11936568 0.12527624 0.37936684 0.24521746 0.3182951
0.045940924 -0.28711626 -0.3443026 -0.47418997 -0.13341652 -0.036402855 -0.1611891 -0.13362467
-0.17175645 0.025674539 -0.11652044 0.21218991 0.09537197 -0.088406846 0.17266741 0.47190297
0.053432804 0.14476871 -0.091093935 -0.22099634 -0.25056493 -0.37549818 0.067543976 0.21239068
0.36831522 0.124769494 0.24455434 -0.11234588 -0.2714875 -0.4414242 -0.3230242 -0.06896956
0.33094883 0.46261224 0.17679656 0.2579937 0.19862902 -0.12891513 -0.16535918 -0.19362865
-0.16825439 0.32767618 0.33427078 0.2328123 0.20495042 -0.076645665 -0.34927857 -0.38067818
-0.19661264 -0.17190893 0.018109176 -0.13573727 -0.18300119 -0.08371265 -0.0091404915 0.036177978
0.04858519 0.15000488 -0.012521906 0.23830786 0.38774878 0.22348295 0.36008027 -0.03456504
-0.27680516 -0.43977 -0.38437033 -0.013384966 0.056575585 0.51618963 0.16036282 0.19505079
0.052400604 -0.12121148 -0.1013791 -0.32749057 -0.19995947 0.410431 0.6899332 0.16990404

bias f4 [32]
00000000: 8e34 3d3d 7519 44bc 010e 41bd 1e45 cfba
00000010: a643 063d cec5 caba 6e06 22bd f2eb 80bc
00000020: af9c 25bd f9b7 cdbb 882c ce3a 1ac7 473d
00000030: 6273 4a3d 4444 9cbd 69d0 a0bd 4825 92bd
00000040: 62f6 20bd bead 823c ff26 1dbc 025c ccbd
00000050: ddd9 af3c 2fe2 66be 637e 9dbc da7a 5fbd
00000060: bb0a 11bd 5eb3 d6bd 49b9 f7bc 368f c93c
00000070: 3d26 e3bd 25e0 2abe 334d 7bbc 632b 6bbd
0.0461927 -0.01196896 -0.047132496 -0.0015813445 0.03277936 -0.0015470327 -0.039556913 -0.015737507
-0.04043263 -0.0062780348 0.0015729824 0.048773862 0.049426444 -0.07630208 -0.07852251 -0.07136017
-0.03929747 0.015951987 -0.009591817 -0.099784866 0.02146619 -0.2254722 -0.019225305 -0.05456052
-0.035410624 -0.1048343 -0.030239718 0.024604421 -0.11091278 -0.16687067 -0.01533823 -0.057414424

weight f4 [32, 32, 3, 3]
00000000: 6c52 0f3d 8e91 ed3d 957b d73e 4a4c f6be
00000010: f6b0 33bf 132d c7be 6171 cebd 97ff 99be
00000020: f73c 9ebd c8e3 ab3d 80a0 6ebe 73aa 313c
00000030: c6d7 aebe 390f 67bf 739e 45bf cda9 71be
00000040: 48b4 f2bd 3517 dc3e 9fbf d3bc 06b5 d73b
00000050: d1de 7a3e 07ed d5bd d612 a9be 891f 1cbe
00000060: a9e2 983c 6e58 4cbe b39a 1b3e 458a c73d
00000070: b371 f63d 524d bb3e 85ac 36be 55f3 eabe
00000080: bd4f 0abf 4c27 d3be ec0f 9bbd 47a4 9a3e
00000090: c4b1 993e d06a ca3e 49f3 933e 905e 9b3e
000000a0: 741a 573e 2aa0 ca3e 6cd6 d7be 53a6 79be
000000b0: ba4e 2fbf 4c92 82bd 99d5 84be abc3 08be
000000c0: 33a0 213f acce 0c3f d8c2 b93e c4e7 bebc
000000d0: c3e1 2b3e aa8c fc3e 7adc a4be 7468 eebe
000000e0: 9504 423d 97ea 42bd 591f 9abe 7793 40bd
000000f0: c8a7 1bba 561d 61be 2ddd 0b3e 8333 de3d
00000100: 5c7c 923e ea43 03be c44e 963e 66ca 6abd
00000110: 647a b5be 6c23 e7be 6ac3 82bf 07b5 433e
00000120: b93e c63c d556 df3d acd5 ec3d 9cb7 09be
00000130: b7af f4bd 1636 5dbe 96b9 143e cc76 bc3e
00000140: 3cc5 b93d 3e2c 3cbf 9792 a1be 7ef4 33bc
00000150: 2c0e b73d 0da7 a43d c7a2 e93e 9f08 8d3e
00000160: 6eba 113f 86e6 a93e 6b62 553e a012 b63e
00000170: 4782 953e a142 133f c52e 0e3f 5521 d33e
00000180: 67b8 1a3e 8e14 adbc feb0 e2be 5082 a2be
00000190: 8cad 39bf 5397 03be afc9 d2be 1ad3 03bf
000001a0: e297 d43c 983b ef3e edd9 4cbd adf6 453f
000001b0: 4570 0bbf e69c 88be 79f5 91be 9505 2b3f
000001c0: 857a 1b3e b555 be3e 000b 533e a2a4 853d
000001d0: a744 3b3d 24d6 813e cb79 c63d a8db 723e
000001e0: 025f 2b3e a804 023e 685a d33e e0cf 563e
000001f0: 6a70 27be 0bbd 28be 56bf 333e 7393 05bd
00000200: a31b 963e 221b 1cbd 7d93 90be e086 0ebf
00000210: d0eb 8a3d 4389 b4be 217a 603e 08f0 01be
00000220: 4af7 76be 8b0d 0d3e 4e52 303d bd86 cabe
00000230: f804 edbe c7ea 873e 4a0d 88be aa5a adbe
00000240: 5622 05be ab5d 143e 1025 d63d 377d 823d
00000250: 486f 953e b20d bc3d c5bf e73b ede4 13be
00000260: 32fa 683e b84e 97be cdda 8abe 0d22 773d
00000270: b528 66be 0de1 2cbf 782d dbbe 2bff f63d
00000280: 0d54 51be 77ee b13e 3387 83bc 774b cfbe
00000290: 0965 47bc 332c cfbd 92be 0bbf fa25 73be
000002a0: a78a 423e 7fb1 d73e 4b0a 913d 27c4 bdbd
000002b0: 1ebf a53e 3624 423f 995e 9c3d 0de6 40be
000002c0: d1d3 813e 4cd2 093f 0bb3 8a3f a896 8d3f
000002d0: fe7c 053e b523 593e bde2 903e 89fd c1bd
000002e0: a28d 383d 48d0 86bc cc3b 50bd e8c7 9ebe
000002f0: 0f50 69bd 10af 4fbe 08ed 6e3c 284b 083e
00000300: 7438 823e b028 103e 4338 9bbe 2199 f23e
00000310: 533e 073f ccf9 3f3e 7580 66bd 9d56 d6bd
00000320: 226a 053e 1c9e b5be c258 d0be f0ae e0be
00000330: 697a 63bd 564b e6bd a741 f63e 8ff3 603d
00000340: 4086 593c e796 c83e eb63 a23d f506 c8be
00000350: d1c4 1fbf 9490 853d 0572 23bf 3c94 1d3f
00000360: c517 8fbf cbcb 8cbf 0d6b b0be 2123 733f
00000370: 7cc4 7d3f 8ddb b63e eace a4be 3ead 56bf
00000380: 59f8 d13d 91dd 53bd ae88 ec3d 3e3f c23d
00000390: 4086 f6bd a3a8 11bf 8789 0dbf aadd 923c
000003a0: 425d 2cbd 9093 bcbc b130 8bbe 8cb9 4abf
000003b0: 89b7 8abe ba5b 093f f4f9 b13e 1163 db3e
000003c0: 751d a23e 32f8 023f 84fe 1bbe 816f 1cbd
000003d0: 1d62 8abd b480 cd3e e48c c6be dd42 bbbe
000003e0: 673b 5fbe 76f1 83bd 431e 5ebd ded0 e33e
000003f0: c894 9a3e 436d 553e 7f40 083e 74fb fbbd
0.034990713 0.11600028 0.42086473 -0.4810508 -0.70191896 -0.38901576 -0.10080219 -0.30077812
-0.07726472 0.08393055 -0.23303413 0.010843861 -0.34148997 -0.902576 -0.771949 -0.2359993
-0.11850792 0.42986456 -0.025848208 0.006582859 0.2449906 -0.104456 -0.33022183 -0.15246405
0.018662767 -0.19955608 0.15195732 0.0974317 0.12033405 0.36582428 -0.17839248 -0.45888773
-0.5402792 -0.4124092 -0.07571396 0.3020346 0.30018437 0.39534616 0.2889655 0.30345583
0.21006185 0.3957532 -0.42155778 -0.24379854 -0.684795 -0.0637556 -0.25944212 -0.13355891
0.6313507 0.55002856 0.36281466 -0.023303874 0.1678534 0.49326068 -0.3219946 -0.46564066
0.04736765 -0.047587004 -0.3010204 -0.047015633 -0.0005937782 -0.21983847 0.1365859 0.10849669
0.28610504 -0.12818876 0.29356968 -0.05732193 -0.3544494 -0.45144212 -1.0215886 0.19112025
0.02419983 0.10905234 0.11564192 -0.13448948 -0.119475774 -0.21602663 0.1452392 0.36809385
0.090708226 -0.7350501 -0.31557152 -0.010983584 0.0893825 0.08039675 0.45632002 0.2754564
0.56925094 0.33183688 0.20838325 0.35561085 0.29200956 0.5752354 0.55540115 0.41236368
0.15109406 -0.021127965 -0.4427566 -0.31740046 -0.72530437 -0.12850694 -0.41169497 -0.5149399
0.02595133 0.46725154 -0.050012518 0.7732952 -0.54468185 -0.26682204 -0.28507593 0.6680539
0.15183456 0.37174764 0.20609665 0.06525542 0.04571977 0.2535869 0.09691199 0.23716605
0.16735461 0.12697089 0.41279912 0.20977736 -0.16351476 -0.16478364 0.17553458 -0.03261132
0.2931796 -0.038111813 -0.28237525 -0.5567455 0.06783259 -0.35260972 0.21921588 -0.12689221
-0.24117771 0.13774697 0.043047242 -0.39555922 -0.46292853 0.26546308 -0.2657264 -0.33858234
-0.1300138 0.14488856 0.10456288 0.06371539 0.29186463 0.091823 0.0070724213 -0.14442797
0.22751692 -0.29552245 -0.27120057 0.060335208 -0.22476466 -0.675309 -0.42808127 0.12060388
-0.20442219 0.34752247 -0.016055679 -0.40487263 -0.012170085 -0.10115852 -0.5458766 -0.23744956
0.18998204 0.42127606 0.07082041 -0.09265929 0.32372373 0.75836504 0.076352306 -0.18837757
0.25356916 0.5383651 1.083589 1.1061602 0.13035962 0.21205027 0.28297988 -0.09472186
0.045056947 -0.016456738 -0.050838277 -0.3101189 -0.056961115 -0.20281625 0.01458288 0.1330992
0.25433695 0.14078021 -0.30316362 0.47382453 0.52829474 0.18747634 -0.05627485 -0.10465739
0.13028768 -0.3547219 -0.40692717 -0.43883467 -0.05553666 -0.11244838 0.48096964 0.054919776
0.013276637 0.3917763 0.07929214 -0.39067808 -0.62409693 0.06521717 -0.63845855 0.6155431
-1.1179129 -1.0999693 -0.34456673 0.9497548 0.99127936 0.3571438 -0.32189113 -0.83858097
0.10252447 -0.051724974 0.11549507 0.09484719 -0.12037325 -0.56897944 -0.55287975 0.017927963
-0.042081125 -0.023019582 -0.27185586 -0.7918937 -0.2709315 0.5365559 0.34761012 0.4284902
0.316631 0.51159966 -0.15233809 -0.038192276 -0.06756995 0.40137255 -0.38779366 -0.3657445
-0.21800004 -0.064425394 -0.05422808 0.4449529 0.30191636 0.20842461 0.13305853 -0.1230382

bias f4 [32]
00000000: 9aca cdbd 4335 4dbe 5af8 eabd 643b 47be
00000010: c639 b33d e63b 7dbd 97d8 613d 6278 9abe
00000020: 02de 8a3d 27d2 663d 7f93 1ebd a395 19be
00000030: 3f5d 62be 1377 063b 7afd 08be d248 933e
00000040: 2d98 283e a48f 6ebe c898 97bd a99d 2dbe
00000050: a712 ddbd 342d d8bc 236e 8c3d 41a3 953d
00000060: a966 26bc a902 8d3a cf39 c0bd a3d1 8abd
00000070: ab83 23be 90fe b6bd 28ac 9a3d 27c3 acbd
-0.10048409 -0.20039849 -0.114731506 -0.1945625 0.08751254 -0.0618247 0.055138197 -0.3016997
0.06780626 0.05635276 -0.038714882 -0.14998488 -0.22105883 0.002051775 -0.13377944 0.28766495
0.164643 -0.23296982 -0.074021876 -0.16954674 -0.10794573 -0.026388742 0.068569444 0.07306529
-0.010156312 0.0010758239 -0.09386026 -0.06778266 -0.15968196 -0.08935273 0.075523674 -0.0843566

weight f4 [10, 32, 3, 3]
00000000: d3ca 04be afc0 c53d f46f 00be 2b79 2cbe
00000010: 294d 063e 03ea 91be 8896 813e dca5 1f3e
00000020: 1e27 01bd 7b71 af3f 3146 9c3e d8f7 cdbe
00000030: c5c2 a9bf 51db 643d a9a5 c53e a2c6 583e
00000040: cb6c a83d 8c93 74be c530 c83e 3536 f6be
00000050: 37ca c9be 8af5 d13e cbe6 333e 4b10 343e
00000060: f245 963d 137e 2e3e d49e 90bc 13b8 5dbf
00000070: d88c 5dbf 6861 fcbd 0183 9c3d bb39 ddbe
00000080: 19e5 e13e c466 cc3d 184c 853e 4606 43be
00000090: f762 07bf e3dc 113d 8b57 7e3e 8a5c 3f3c
000000a0: 447b 6f3f 137b 063f 3354 18be 29de af3d
000000b0: 8109 e73e 2674 c33e d8de b4be 9ff2 20bf
000000c0: 64b1 11be a797 733e 5f1b 8c3e 5bb2 5d3e
000000d0: 528d fe3c 86ed 0e3e 6ccb 23bf 9bbf d43c
000000e0: 3fda 823e b42d c93e d952 c43d 8882 6dbf
000000f0: 742f a03d d77e e8be dfb1 fabd e517 683d
00000100: 50ee 80bf d885 96be d798 cf3c 87e2 e3be
00000110: f0fd ce3e d962 063e 930d 273e febd 083d
00000120: e281 1b3f f1fa cb3c be25 d1be 6f2a 463e
00000130: c604 35bf 404e a93e 9baa cdbe cc05 f6bd
00000140: 9ec6 733e b469 fabe 51a0 26bf b7e7 2c3b
00000150: 0cce 963e 95d6 223e b5f2 373e f08e bd3d
00000160: 9819 5cbd 74fe 25bd 6262 1e3f 3503 0c3f
00000170: 638d 4ebf f65f 86bf 1b19 1cbf 7ec6 9e3f
00000180: 5dd1 943e 8e98 d8bd 66a8 8dbe 4bf2 ad3e
00000190: 177b a53f 4ec2 dcbe e78b bd3e 3584 8abf
000001a0: 4edd 2e3d 95e5 d33c 74a5 a93e fdfd b23d
000001b0: 86fb 9f3f d443 6e3e f74b 39bf 6f8e 7c3e
000001c0: ba83 93be d2ba 9f3e 0fbb b8bd 5ccb 7fbd
000001d0: 0ab3 e6bc 8c78 e83f 656e 7a3f 8db3 19bf
000001e0: 8fbb dc3e 9ab6 ae3e 49d4 05bf a077 8c3c
000001f0: 5cee d13e 697e fb3d d24f 843e 6db6 993f
00000200: 9a4d dcbe c854 52be e245 1d3d 2854 e53e
00000210: d3f8 303e fda0 c2be 2069 82be 0eaa 66bf
00000220: 5a69 c33e 4ad2 033f 60f6 93bf b0e9 e2be
00000230: cd68 953f 77ba ad3e 7d8b 193d e336 033e
00000240: 40a4 0240 129b eb3c 8795 29bf 850a 2ebf
00000250: 0bbf 31be 0f84 ad3e 7893 5fbd d82a 353e
00000260: dddb a7be f161 803f 8dfc 413f 95c9 3fbf
00000270: 1c15 87bd bc76 233e 72a7 a03e 9a85 073e
00000280: 6f08 91bd 8449 713e 02dd 97bf 1b12 e4bd
00000290: bd30 063d b16c de3e 33ba 82be d82c 43bf
000002a0: 18c9 f3be 7fa2 8f3e 298a 513f e6a7 2ebe
000002b0: 60a5 c23f c198 e5be 9ac3 0dbf 4a6e 34bf
000002c0: 0444 913e 2402 38bd 7f66 79be ce5e 4fbe
000002d0: c7e5 16be aaa8 01be c5e7 6d3e fcf0 e8be
000002e0: f1a0 003f fda1 f3be f749 02bc e9eb 133e
000002f0: 0671 d9bb 1a25 c73f 3198 3f3e 28c7 3ebf
00000300: 2430 74bf 104a aebe 9263 80be 9d1c 1dbe
00000310: e44e ab3e 5bec b2be 96ac 793e 08fe 45be
00000320: 5a47 ecbd 266b 763e 3aef e6be ecec 343f
00000330: 97e6 bfbd 7731 76be 8c78 bbbd cf32 18be
00000340: 43be af3e 8f9a a4be 360d 4ebf 7983 133e
00000350: a48a 963f 3823 27bc e85d 65be 8084 ab3e
00000360: c5f9 84be bdd6 1a3f 3182 d93d 6e3a d5bf
00000370: e12f e03e 47a1 1a3e 22a9 123e c9c7 d83e
00000380: 1f10 803e 05e4 1cbf be81 2ebd 039c e03e
00000390: 85a8 1f3d 62dd 41bf 2b3c bfbe 29f9 203e
000003a0: c4eb 573d dd70 cfbc 21d0 953f c7dc 813e
000003b0: e600 f7be 5cb1 bf3e d4b5 453e 057b f2be
000003c0: 26ae 1cbd 09aa 9838 547c 16be 70b3 8b3f
000003d0: a6be 52bf 24cc e9be 5657 923e 58dd e33e
000003e0: 1c0c b0be e088 5b3d 73de 0bbd f3b1 18be
000003f0: 943e 3fbf f46a 2f3e 68a2 133f f6ba f93e
-0.12967996 0.09655892 -0.12542707 -0.16843097 0.13115372 -0.2849885 0.2531016 0.15590614
-0.031531446 1.3706506 0.30522302 -0.40228152 -1.3262564 0.05587322 0.3860295 0.21169522
0.082238756 -0.2388441 0.39099708 -0.48088232 -0.3941209 0.41007644 0.1756851 0.1758434
0.0733756 0.17040281 -0.01765386 -0.86609 -0.86543036 -0.12323266 0.076421745 -0.43208107
0.441201 0.099805385 0.26034617 -0.19045362 -0.52885383 0.035611045 0.24838082 0.011679778
0.93547463 0.52531546 -0.1487587 0.085872956 0.45124438 0.38174552 -0.35326266 -0.6287021
-0.14227825 0.2378832 0.27364632 0.21650068 0.031073246 0.13957796 -0.6398227 0.02597027
0.25557134 0.3929268 0.095861144 -0.927773 0.07821551 -0.4540927 -0.122409575 0.056663413
-1.0072727 -0.2939899 0.025341434 -0.44508764 0.40428114 0.13123645 0.16313772 0.033384316
0.6074506 0.024899932 -0.40849108 0.19352125 -0.7071041 0.33067513 -0.40169224 -0.120128244
0.23806235 -0.4890877 -0.65088373 0.002638323 0.29454076 0.15902169 0.17963679 0.09255779
-0.053735346 -0.04052587 0.6186887 0.54692394 -0.8068449 -1.0498035 -0.6097581 1.2404325
0.29065982 -0.105759725 -0.2766754 0.33973917 1.2928189 -0.43116993 0.370208 -1.0821596
0.04269152 0.02586631 0.33134043 0.08739851 1.2498634 0.23268062 -0.7238154 0.24663709
-0.28811437 0.3119722 -0.090200536 -0.062449798 -0.028161544 1.8161788 0.978247 -0.600396
0.43111846 0.3412369 -0.52277046 0.017146885 0.41002166 0.1227997 0.25842148 1.2008797
-0.43027955 -0.20540154 0.038396724 0.4479077 0.17282419 -0.3801345 -0.2547083 -0.9010323
0.38166314 0.5149275 -1.1559563 -0.44318914 1.1672608 0.33931324 0.037486542 0.12813906
2.041275 0.028760467 -0.66243786 -0.679848 -0.17358033 0.33889815 -0.054583997 0.17692125
-0.3278493 1.0029889 0.75775987 -0.74916965 -0.06595823 0.15963262 0.3137775 0.13234559
-0.07081687 0.235632 -1.1864321 -0.11136266 0.032761324 0.434423 -0.25532684 -0.762403
-0.4761436 0.28053662 0.8185144 -0.17056236 1.5206718 -0.44843104 -0.5537659 -0.7048079
0.28372204 -0.044923916 -0.24355505 -0.20251009 -0.1473609 -0.12661996 0.23232944 -0.45496356
0.5024558 -0.47584525 -0.007952205 0.14445461 -0.006635788 1.5558197 0.187104 -0.7452264
-0.95385957 -0.3404088 -0.25075966 -0.15342946 0.33458626 -0.3494595 0.24382243 -0.19335186
-0.11537047 0.24064311 -0.4510439 0.70674014 -0.093701534 -0.24042307 -0.09153852 -0.14863132
0.34324846 -0.3214917 -0.8048891 0.14405622 1.176106 -0.010201268 -0.22399104 0.33499527
-0.2597181 0.60483915 0.10620535 -1.6658456 0.4378653 0.15100585 0.14322332 0.42339924
0.250123 -0.6128543 -0.0426042 0.43869027 0.038979072 -0.7572843 -0.37350592 0.15720047
0.052715078 -0.025322372 1.1704141 0.25363752 -0.48242873 0.37440002 0.19307643 -0.4735948
-0.03825202 7.279596e-05 -0.14695865 1.0914135 -0.82322156 -0.4566356 0.28582257 0.4450481
-0.3438424 0.05359733 -0.03414769 -0.14911632 -0.7470486 0.17130643 0.5766969 0.48775452

bias f4 [10]
00000000: 5381 1ebe 45d0 bcbd 2104 043e 7c56 a2bd
00000010: ba57 d0bd 95ea 6bbd afc6 eabd 16c3 783d
00000020: 9d9a acbd 3c48 aabd
-0.15479021 -0.09219412 0.128922 -0.07926652 -0.101729825 -0.05759676 -0.11463677 0.060732923
-0.08427928 -0.08314559

weight f4 [10, 32, 3, 3]
00000000: 9d96 5abf aa8b 05bf 1260 27be 6087 223c
00000010: 2e0a 90be d05e 353f bcc1 513e 692b b43f
00000020: fcfa 273f bd6e 0f3e 947f 29bf 1a3e cf3d
00000030: 9dd2 053d f273 943e fd1a 84be 4cbe 90bd
00000040: 494a 39bf 6ac2 433f 8a3c eebe e55e 833e
00000050: cc97 873e 3a7e c0bc 4aaa e5be 39c9 a03c
00000060: 3a4c 40be 7b5b 33bf 534f 673e 0214 bbbd
00000070: 6671 053e 6312 a33c 1586 213e b59a 4abd
00000080: 65da 203f 4290 64be 6459 2fbe dc9a 643f
00000090: 2d39 87be f2a4 c8be 8b91 4abd 1a00 c83e
000000a0: c19e c93d 506b 183f 0d4d 02bf f539 043d
000000b0: 4d55 5a3e 23d2 7abe e4f0 a9be c3eb 27bc
000000c0: b17c 9abe 3853 36be adee b0bd fde5 2cbe
000000d0: 824b c33e ec38 ba3f 5237 95bf bbe0 46be
000000e0: 498d 0abe 320e bfbf 4448 f13d b3a4 abbd
000000f0: 58e7 c63e 0fb0 3fbf bdb9 0f40 2921 3ebd
00000100: 6930 ffbc 64ad 6b3e 168e ca3d aa08 c9be
00000110: 1d41 3f3f a992 bcbd 9416 903e 202c 31bf
00000120: d8fb 083e 421e d23e d3b2 e6bd 5b18 8d3b
00000130: f031 733d da1b 453e 5ca1 813e 1d9f 3dbf
00000140: 2d1d 403f 77e3 17bd 5699 54be 739e 443f
00000150: 93b6 ca3e d690 1ebf 7a5e 1fbd 33a6 423e
00000160: 880c 75bd da13 3e3e 806b 273e f6cc e93d
00000170: 0581 613d 5f4e 8dbe 8c3f 173f 906a 563e
00000180: 12b8 5ebe 3d73 18bf a5ec 323c f13c c3bd
00000190: ac2d 41be 18ac 83be c016 67be da6b 9b3e
000001a0: 0146 a63f d00d 2b3e bb7e d7be a2fa 9ebe
000001b0: 4508 2840 61e0 2abf 908f c4be d9d1 babd
000001c0: 3a34 9cbe 42e4 89bf 065a 7f3f b71b 4dbf
000001d0: c64b 90bf 6f7e 77be 23db 2fbe d146 12bf
000001e0: aed5 d1be 88ff 36be 1097 233f 3c8a 78bd
000001f0: 8b21 87be 8c63 233d 65ee c4be 011a 4840
00000200: 66e8 983e e9ef 13bf 1aa3 003d 1221 83be
00000210: e19c cf3d 72e4 1b3f 227a f1bf 34d5 f13c
00000220: 2fbf cfbe 9709 ab3e dd9b 403f 83b5 623d
00000230: 23ed ec3e 0302 15be ca92 1e3f a49e 1fbf
00000240: 50ec 19bd 1ae4 2bbe 3e99 f0be 0191 163f
00000250: 0f8e 203e 7df5 2f3e 6034 af3e 6ee7 46bf
00000260: a0f7 d63e 7f68 3fbe dd6f 94be d3ac c83d
00000270: 7407 663e 2a81 063f 9b9d 54bd d00d 6b3f
00000280: 533f 753f 7cb6 0c40 6bc1 a9bc 821e 2abf
00000290: 49e6 c4bd d3a8 7bbd 55f1 9a3e dad1 f7bd
000002a0: e6c5 cb3e 7b67 a2bf d524 223f 6bfc 09bd
000002b0: 6905 eebe be35 40bc daff 0b3c fd67 713d
000002c0: f937 143e 12ec 68be eb6b 3abe 1db2 0240
000002d0: 5d2b 9a3d 699f d8be 7cd9 0bbf c09f 33bf
000002e0: fd08 2dbe 8900 5c3f 0b65 60be 3af7 7bbf
000002f0: 35af 863f 1371 8fbe 8818 36bf 1545 c4be
00000300: 8d1f a23e d5fe 95be f0e2 b33f 5a3a 0c3f
00000310: 910c 183d b57e e4be 6b00 c0be 2ee7 cdbe
00000320: af14 b3bd 1009 cdbe 66b4 a53e 80f3 ab3f
00000330: a196 15bf 4347 debf dcef 3c3e ddcd 48be
00000340: d753 06bf 5568 72be 95d2 2b3d 7984 8fbd
00000350: 9557 153f effa a5be 0414 2dc0 59c6 353f
00000360: 414d 4ebe 0763 273d 11f9 b03e d4a5 3abd
00000370: 94c2 efbe dc9e 7f3f 3398 093f c705 d53e
00000380: 0cae 05bf aee3 01bf 967f aa3f 0678 e6bd
00000390: 89c7 acbe 4e5a cbbe 6ead a0bf c755 c03e
000003a0: 7d68 dabd 6320 703f 998c 8e3e 899d 24be
000003b0: 2792 37bf 6a9d 393d 97b2 d23e 06a6 87be
000003c0: b358 043e 4516 0540 2c41 503f 3b1a edbe
000003d0: 7517 41bf 63e1 c4be 4515 fd3e 1f54 1b3f
000003e0: 4ed9 5cbf f5e5 c7be 801c a0bf 8a7e 913f
000003f0: 3c0e 5d3e affb 16bf aa9b 313e f138 0a3f
-0.8538607 -0.52166235 -0.16345242 0.009919971 -0.28132766 0.708478 0.2048406 1.4075748
0.65617347 0.14007087 -0.66210294 0.10119267 0.03267156 0.2899471 -0.2580184 -0.07067546
-0.72378975 0.7646853 -0.46530563 0.25658336 0.26483 -0.02349769 -0.44856483 0.0196272
-0.18779078 -0.70061463 0.22588854 -0.091346756 0.1303154 0.019906228 0.15773804 -0.049463946
0.62833244 -0.22320655 -0.17123944 0.89298797 -0.2641081 -0.39188343 -0.049455207 0.39062577
0.09844733 0.59538746 -0.5089882 0.032281835 0.21321602 -0.24494223 -0.33191597 -0.010249081
-0.30173257 -0.17805183 -0.08639274 -0.16884609 0.38143545 1.4548621 -1.1657507 -0.19421665
-0.13530459 -1.4926207 0.11781362 -0.08381023 0.38848376 -0.7487802 2.2457116 -0.046418343
-0.031151013 0.23015362 0.09890382 -0.39264423 0.7470873 -0.09207661 0.28142226 -0.69207954
0.13377321 0.4103871 -0.11264577 0.004305882 0.059373796 0.19248906 0.2531842 -0.7407091
0.7504452 -0.03708216 -0.20761618 0.76804274 0.39592418 -0.6193975 -0.03890846 0.19008712
-0.059826404 0.1856226 0.16349602 0.11416046 0.055054683 -0.27598855 0.5908134 0.20939088
-0.21749905 -0.5955084 0.010920678 -0.09533108 -0.18865079 -0.25717235 -0.22567272 0.30355722
1.2990113 0.16704488 -0.42088875 -0.31050593 2.6255047 -0.66748625 -0.3839078 -0.091220565
-0.30508596 -1.0772784 0.9974674 -0.80120414 -1.1273124 -0.24169324 -0.17173438 -0.5713931
-0.40983337 -0.17870915 0.6390238 -0.060678706 -0.2639278 0.039889857 -0.3846313 3.1265872
0.29864806 -0.5778795 0.031405546 -0.25611168 0.10137344 0.60895455 -1.8865397 0.029520608
-0.4057555 0.33405754 0.7523783 0.055348884 0.4627467 -0.14551549 0.6194273 -0.6235144
-0.03757888 -0.16786233 -0.46991915 0.5881501 0.15679191 0.1718349 0.34219646 -0.77696884
0.41985798 -0.18692206 -0.28991595 0.097985886 0.2246378 0.5254084 -0.051908117 0.9181795
0.9579975 2.198638 -0.020722112 -0.664528 -0.09614236 -0.0614403 0.30262247 -0.12100573
0.39799422 -1.268783 0.6333745 -0.03368799 -0.46488503 -0.011731563 0.0085448865 0.05893706
0.14474477 -0.22746304 -0.1820523 2.0421212 0.07527802 -0.4230912 -0.5462873 -0.70165634
-0.1689796 0.85938317 -0.21913545 -0.9842411 1.0522219 -0.28015956 -0.7113118 -0.38333955
0.31664696 -0.29295984 1.4053631 0.5477654 0.03712136 -0.4462792 -0.3750032 -0.4021544
-0.087441795 -0.40045977 0.32364196 1.3433685 -0.58432966 -1.7365497 0.18450874 -0.1960978
-0.5247168 -0.23672612 0.041948874 -0.07007689 0.58336765 -0.3241801 -2.7043467 0.7100578
-0.20146658 0.040865924 0.34565023 -0.045568302 -0.4682814 0.99851775 0.5374786 0.4160597
-0.522187 -0.50738037 1.3320186 -0.112533614 -0.33745983 -0.39717335 -1.2552927 0.37565443
-0.10664461 0.9379942 0.27841642 -0.1607572 -0.71707386 0.045316137 0.41151878 -0.26493853
0.12924461 2.0794842 0.81349444 -0.46309075 -0.7542642 -0.38453206 0.4943029 0.60675234
-0.8626908 -0.3904263 -1.2508698 1.1366742 0.21587461 -0.5897779 0.17344537 0.53993136

bias f4 [32]
00000000: 059e 773d af07 23bb e1ec de3d e919 95be
00000010: 23a8 4a3e 1e95 4fbd b513 093f e020 083e
00000020: 0cef 553e df9f dcbb dbba b53e 4142 27bd
00000030: 2217 18bf fb4d 103d 09dd 93bd 277f 963e
00000040: c9df e03d a3fb 013f e560 183f 47d0 d33e
00000050: a232 793e f541 813e 2d33 403f 993a 973e
00000060: 2bf6 ec3d bf6b 74be 1d15 9e3d b4cc 6ebd
00000070: 560f 543e d00f 933e 490d 89be 01d7 163f
0.060453434 -0.0024876406 0.10885025 -0.2912133 0.19790702 -0.05067932 0.53545696 0.13293791
0.2089197 -0.0067329253 0.35494122 -0.04083467 -0.594103 0.035230618 -0.072198935 0.29393885
0.10980184 0.5077459 0.5952285 0.4136984 0.24335721 0.25245634 0.7507809 0.29536894
0.1157039 -0.23869227 0.07718871 -0.05830069 0.20708975 0.28723 -0.26767948 0.5892182

weight f4 [32, 32, 3, 3]
00000000: 657b 563c d247 bebc 817c 4ebe 5576 bf3e
00000010: 0246 c03d ee1a 18be 9abd cb3d 28ad fcbd
00000020: 07c2 1e3c 1ba2 03bc 67aa 153e 7e5e 92bd
00000030: 3dc7 eabe e31f 253a aae6 8b3f 8e36 273f
00000040: 3b7a 1cbf 4092 233f 18a1 cdbe 64fa d639
00000050: 4881 b73e cc6e bcbe 7513 c03e 524d df3d
00000060: 1112 913e bae5 a53e 3352 32be 5819 96be
00000070: 7e20 9c3e 8340 8b3d 31cb c0be 9da4 f33d
00000080: 0f3c 043e 59b9 063f d413 47be edf9 d23e
00000090: 305d 253f 386a 853e acdb 863e 7980 2dbe
000000a0: b4ba a03e a45b 013f d0f8 723e 9001 083d
000000b0: 3acb 5fbe 57c0 c3be 6401 cd3d 2b78 003e
000000c0: 3cef c5bd 5179 d13e ed11 f13d 17e6 ea3e
000000d0: 3b67 623e 0a45 a7bd 3964 a53c c57e 1dbf
000000e0: d924 ba3f 5489 01bf 8846 d8be aa93 e33f
000000f0: f32c 11bf ceb0 38bf ec87 b43d 0f7b 8dbd
00000100: ddcf f83d 528f b13c add6 33be d48a b43e
00000110: 39ee 863e 1e4b ed3e 9472 973e c690 36bd
00000120: 1bf4 373d 971c 4ebe bb63 b63e 3d0c 9abd
00000130: 0c72 de3a 5a28 cd3e 34d6 e5bc f696 2a3e
00000140: bd82 9bbe 8003 08be a277 1c3c c618 16be
00000150: 94ff 5abe cd96 a73e 5994 a43d 1ff9 073f
00000160: e1cf 3bbc d349 0a3f 572d 3cbe fecf 353d
00000170: d034 9a3d 7509 573c c290 0ebd ee11 9b3e
00000180: a455 1ebe ddf7 95be bc83 42be 8762 a3bd
00000190: 2b64 633e 9de8 a13e 1766 b6be 19f3 be3e
000001a0: 228a 9f3e 6506 893e 09d5 3e3c 9e96 8e3e
000001b0: 420a 903e 942d 323e fefb f43e 8047 1a3d
000001c0: b6b3 703e f6c6 7c3f 438f 6cbe 61e8 f8be
000001d0: 2d1e c53e e13d 803a 364e 88ba 8fec 903e
000001e0: 3e80 b4be 3cc2 ca3e cc7c bdbc 9641 b43e
000001f0: 39cc e3bb 93a9 233f 2275 cf3d 2791 bf3e
00000200: 23ee db3e 52b3 22be 065a e5bd 7cea bc3e
00000210: 2a85 a4bd b882 d6be 80f6 70be 3639 cfbd
00000220: 6939 033c a389 093e b0d3 893e bc68 8d3d
00000230: 5102 88bd b242 363d db46 98be 07aa f43d
00000240: 2f5d 65bd 80af 3c3e b1c9 7fbd d543 09be
00000250: 28a9 ad3d 1807 87be 495e b93d e402 22be
00000260: ab3a 183f 8074 d0be 9db3 633e 5592 debd
00000270: 295e b23e a451 903f ed84 703f 6a77 9c3e
00000280: ff88 19bf 874c 5e3f 8edf c0bd 0d0e a83e
00000290: 7431 b23d 0107 dabd 7ea2 bb3e 1c81 82bd
000002a0: 4b0b 2dbe 5bad 403e 600b 643f 3e86 283e
000002b0: 46c5 bbbe 1084 4f3e 6bc0 b6bd 6483 3c3f
000002c0: e612 933e 5556 b2bc e0dd db3e fc9f 243e
000002d0: 74df e43d 2260 2f3d 7fec d6bd 852f 773e
000002e0: 3e49 3dbd 4dba 0ebd 64eb 813d 2322 e6bc
000002f0: cfdc 34bc 0e83 843d f343 ec3e ba06 b23e
00000300: cb85 15be 20ec 213f 9967 80be 2308 623e
00000310: cb84 edbd 552f b63d 28cc 7fbd 883c 393e
00000320: 22d6 c83e afac 00be 34ba b03e a089 333f
00000330: 10af f13e 11bc 53bc 0f1b c33d e9ab 43be
00000340: 4ea5 5f3e c1ae 933e b189 9abe 0292 f63e
00000350: 1f9a 2c3e 3c1e a03e 7863 903d 4168 d53d
00000360: 8e98 bbbe d7ee b73d 880d 553f 04e9 20bf
00000370: 0afd a6be b7db 0240 9594 52be e104 06bd
00000380: 8376 b43e e014 6f3e a134 973e fedc ab3e
00000390: 2902 55be 9916 963e 12a7 003f 014e a63e
000003a0: b858 b0bd a368 113f 5d3c b9be 08d4 1ebd
000003b0: b30f d53c 79cb 2abf 1a41 d03e d69a e2be
000003c0: 0f13 2d3e 8b02 ab3e da55 83bf 390a b3bc
000003d0: 1a21 a43d d35b b93e cb29 283e 0415 12bc
000003e0: 542d 1bbd 0acc 753c c922 b1be e390 313e
000003f0: 2197 81be 5e8d 083e 98a5 c93d 4b7c a5be
0.013090943 -0.023227606 -0.20164682 0.37394968 0.09388353 -0.14854023 0.09948273 -0.123377144
0.009689814 -0.008034254 0.14615785 -0.07146929 -0.45855132 0.0006299002 1.0929768 0.6531762
-0.6112401 0.63895035 -0.40161967 0.00041003816 0.3584082 -0.3680328 0.37514845 0.109034196
0.28334096 0.3240183 -0.17414169 -0.2931621 0.3049354 0.06799414 -0.37655023 0.11896632
0.12913536 0.5262657 -0.19441158 0.41206303 0.6459532 0.260576 0.2633947 -0.1694354
0.31392443 0.5053046 0.23727727 0.033204615 -0.21854869 -0.3823268 0.10010031 0.1254584
-0.09664771 0.4091287 0.11770997 0.4587867 0.22109692 -0.08167465 0.020189391 -0.6152156
1.4542495 -0.5060017 -0.4224131 1.7779438 -0.5670921 -0.7214478 0.088149875 -0.06908237
0.12149022 0.021674786 -0.17562361 0.35262167 0.26353624 0.46346372 0.29579604 -0.04457166
0.04491053 -0.20128094 0.35622963 -0.075218655 0.0016971244 0.40069848 -0.028056242 0.1665915
-0.30373183 -0.13282585 0.009550007 -0.14657888 -0.21386558 0.3273224 0.080361076 0.53114504
-0.011463136 0.54018897 -0.18376671 0.04438781 0.075296044 0.013124813 -0.03480602 0.30287117
-0.15462357 -0.29290667 -0.18995565 -0.07977777 0.2220618 0.31622782 -0.35624763 0.37294844
0.31160074 0.2676269 0.011647471 0.27849287 0.28132826 0.17400199 0.47848505 0.037665844
0.23506054 0.9874109 -0.23101525 -0.4861479 0.38499585 0.0009784066 -0.0010399285 0.2830548
-0.3525409 0.39601314 -0.023130797 0.35206288 -0.0069518355 0.63930625 0.10129763 0.3741543
0.4295512 -0.15888718 -0.11198811 0.36897647 -0.080332115 -0.41896605 -0.23531532 -0.10118334
0.008009293 0.1343141 0.26919317 0.06904742 -0.06641067 0.0444972 -0.29741558 0.11946493
-0.05599707 0.18426323 -0.062448207 -0.13404782 0.084795296 -0.263726 0.090511866 -0.15821415
0.5946452 -0.40713882 0.22236486 -0.10867754 0.34837463 1.1274915 0.9395283 0.30559856
-0.59974664 0.8683552 -0.0941764 0.3282322 0.08700839 -0.10645867 0.3664741 -0.06372282
-0.16898839 0.1881613 0.89079857 0.1645746 -0.36673945 0.20265222 -0.089234196 0.73637986
0.28725356 -0.021769682 0.42942715 0.16076654 0.11175433 0.04281629 -0.10494327 0.24139221
-0.046212427 -0.03484564 0.06343725 -0.02809245 -0.011038973 0.06470309 0.4614559 0.34770757
-0.14601819 0.63250923 -0.2507904 0.22073416 -0.11597594 0.088957466 -0.062450558 0.18089497
0.3922587 -0.12565874 0.34517062 0.70131874 0.47203875 -0.0129232565 0.095266454 -0.19108547
0.21840402 0.28844264 -0.30183175 0.4815827 0.16855668 0.31273067 0.07050222 0.104202755
-0.36639827 0.08981102 0.8322377 -0.62855554 -0.32614928 2.0446603 -0.20564492 -0.032719497
0.35246667 0.23347807 0.2953234 0.3356704 -0.20801605 0.29314116 0.5025493 0.32481387
-0.08610672 0.5680029 -0.36178866 -0.038776428 0.026008463 -0.66716725 0.4067467 -0.44258755
0.16901802 0.33400378 -1.0260575 -0.02185546 0.08014126 0.3620287 0.16422193 -0.008916143
-0.037885025 0.01500226 -0.3459685 0.17340426 -0.25310615 0.13335177 0.098460376 -0.3232139

bias f4 [32]
00000000: e0d0 643d 86ec 8cbe 7d35 94be 3a9d 6dbe
00000010: 08aa 8bbe a175 6ebe d01d 86be 8490 77be
00000020: 7e52 c83c 6a2e 3dbe f197 793d 03da 77be
00000030: 4904 94be f0c2 79be 986d 843a bcf4 b2bb
00000040: 48ee 37be 65e9 ecbe e12f 1fbe d8bb f4bc
00000050: abed ef3c bff5 8dbe 571b a6be 7c59 99be
00000060: 56de a0bd 3744 84be eef3 68be 4e4f 34bd
00000070: 30a5 67be 56ed a7be 905d ea3d 3427 8bbe
0.05586326 -0.27524203 -0.28947058 -0.23204508 -0.2727816 -0.2328706 -0.2619462 -0.24176222
0.024453398 -0.18474737 0.06093592 -0.24204259 -0.2890952 -0.24390769 0.0010103462 -0.0054613035
-0.17961991 -0.46271816 -0.15545608 -0.029874727 0.029288134 -0.27726552 -0.32442734 -0.29951084
-0.07854907 -0.25833294 -0.22749302 -0.044020943 -0.22621608 -0.3279826 0.11443627 -0.27178347

weight f4 [32, 32, 3, 3]
00000000: 00bc e1bd 2705 2d3e 229e 7dbd bc02 fdbd
00000010: 2e88 e13e 64f1 973e 0ae3 c63b 9522 4d3e
00000020: 6fee 103d 4852 81be 0f09 02be 190f 8abd
00000030: f712 b3be 05e7 f5be 2af6 e0be e94e febe
00000040: d847 e2be a174 d4bd 44eb 983d 620d 3ebd
00000050: 9080 d6bd 7969 a23e 4284 d23e d3eb 293e
00000060: f4e2 bc3e 4465 b73e e3e3 fa3d 8c4b 3c3e
00000070: 7f20 19bd ed8b 85bd 7e55 a93e 7f25 bf3e
00000080: 350d 2b3e e4ef b43e a595 b23e 7a24 e43d
00000090: 624d 4ebe 91ee b33d cf8a 123e 10e7 6ebe
000000a0: 5872 e4be 7811 27be b677 9fbe 2d42 9ebe
000000b0: 4ffe e73d 6be9 20be ba34 e23b efc5 afbc
000000c0: 20fe b3be e1f1 cdbe cb88 aabd dcb0 acbe
000000d0: 65c5 89be 8724 b63c a2f1 7abe fd45 37bd
000000e0: 92e3 eebd d8c0 98be 5746 d0be bd22 cdbd
000000f0: 2d6b e8be c11f d7be 8a12 6abd 756e b2be
00000100: 3e65 88bd 608f 943d dc20 42bf 1900 18bf
00000110: 5f88 bdbd 08af 29be 7ba8 81be 896b b43e
00000120: efd9 b6be 2b3e fdbe 7cc9 f43c 746f 9cbc
00000130: 2258 dcbe b63d 0d3f 19f5 fc3e b396 703f
00000140: b234 883f da99 933e 74f9 21be e85e 55be
00000150: 348c e03e 5a7d 9c3e 8ec1 033e b937 113f
00000160: e364 023f d42c 023e 98cf e43d 6e95 1abc
00000170: 3235 9fbd 6943 fb3e 67b4 e83e 19b1 a03e
00000180: ad3e 983e 1e56 9e3e 1ff0 9e3c db9f a0be
00000190: b5a6 42be c5f0 8fbe f5ae 59be 4db3 26bf
000001a0: b166 56bf 4514 70be bbc7 d0be 2f4a 48bd
000001b0: 28c7 adbe 6f24 c3ba fddf 7f3d d018 97be
000001c0: fb09 e4be 29d1 a4bd 2955 dabe ea0c a2be
000001d0: 0231 a13d 7fdf 0c3e c316 a2bd e6b7 07bf
000001e0: cbb9 04bf 17f1 04bf e322 b6be 4d7d 973d
000001f0: 5a77 cfbd 786c 8fbc 6b1d 79be db22 b3bd
00000200: ba20 ebbc 8aae cabe d305 cbbe c79a bcbd
00000210: 111e abbe 3c3f 16be 024c 0d3d 85d6 653e
00000220: 9662 86bd a16c 8bbd 540b 453e faf2 d43e
00000230: e034 7b3d efb1 793e b19a c53e ce6e 7d3d
00000240: 6f85 593e effa 243e a069 57be 4035 04bf
00000250: 1863 1fbf 0747 23bf ce0c d6be 3e56 4cbf
00000260: 08c9 3cbf 96b2 28be d5ce 80bc 698f 113e
00000270: d4ab 15bf d6c3 0fbf 0a6b 02bf 35ae 8bbe
00000280: bf15 c1be 777d df3d 10a7 52be c515 723e
00000290: 19a6 9c3d 0ef6 c8be 607d e3be d7eb c0bd
000002a0: 6e65 d8be 6a63 26bf 1aff b8bd ca6a 6b3d
000002b0: e6e1 09bd 9110 74be b4db 863e 383e d83e
000002c0: 7053 f13d ccfe 6f3e 686d 813e d2d3 1b3e
000002d0: bbf5 9f3e 63d2 18bd 071b 3fbd a27d ba3e
000002e0: fd8b c13e 605e 273e 0e91 023f c48e c33e
000002f0: 38eb 023e 47ba 8cbe f64b 02be 7a96 6e3d
00000300: 948a 05bf d774 9dbe 3a1d 07be d40b a3be
00000310: ddd2 63be db9f 023e b1e9 8c3e e1ec 653b
00000320: 5311 b3bb 3171 013f 0266 f73e bf0a 873e
00000330: 7543 ca3e da4c d43e 16e1 3c3e 63bf 74be
00000340: 0f0e 27be e4fe 27be 30a9 fdbe a0da edbe
00000350: 94cd d7be 3237 05bf 65c5 b4be 770b 22be
00000360: a85a cfbc a3c6 b0bd d6b0 c4be de63 04bf
00000370: cb42 e5be 6f7c 61be e735 fbbe fc05 e1be
00000380: 9f09 7cbe e7f1 87be 9883 cebc a7dd c43d
00000390: 6cac c7be 711f 9cbe 87fe 633d 497f 06bf
000003a0: 398c bdbe 0108 503c 0b86 123f 7f5e 6f3d
000003b0: 7d9c fd3d b4a7 173f a667 d13e 9e69 f33e
000003c0: c4b6 653f d83d 163f 87b6 a93e bdc9 ecbe
000003d0: f209 02be 8683 e3bd cf5a efbe 9d09 dfbe
000003e0: 93d7 4abe 4f48 00bf 2b0c d9be fcd7 f4bc
000003f0: 3b4e 883e b76a 3ebd ce51 3cbd be5b bc3e
-0.11022186 0.16896497 -0.061918385 -0.12354037 0.4404921 0.29676354 0.0060695456 0.20032723
0.035383638 -0.25258088 -0.12698768 -0.06741161 -0.34975407 -0.48027816 -0.43937808 -0.4966958
-0.44195437 -0.10373808 0.07466748 -0.04639948 -0.1047374 0.31721094 0.4111653 0.16593866
0.36891901 0.35819447 0.12250497 0.18388194 -0.037384506 -0.06520829 0.33073038 0.37333295
0.16704257 0.35339272 0.34879795 0.1113977 -0.20146707 0.08785737 0.14310764 -0.23330331
-0.44618487 -0.16315258 -0.3114602 -0.30909863 0.113278024 -0.15714042 0.006903258 -0.021456687
-0.3515482 -0.402236 -0.083268724 -0.33728683 -0.26908413 0.022234214 -0.24506238 -0.04474448
-0.11664499 -0.29834628 -0.40678665 -0.100163914 -0.4539427 -0.42016414 -0.057146586 -0.34849897
-0.066599354 0.07253909 -0.7583139 -0.5937515 -0.09254526 -0.16570675 -0.25323853 0.35238293
-0.35713145 -0.49461493 0.029881231 -0.019096114 -0.4303599 0.5517229 0.49405745 0.9397995
1.0641081 0.28828317 -0.15817815 -0.20836985 0.43856966 0.30564386 0.12866804 0.5672565
0.5093519 0.12712413 0.11172408 -0.009435041 -0.07773818 0.49074867 0.45450136 0.31385115
0.29735318 0.30925077 0.019401608 -0.3137196 -0.19008906 -0.2811338 -0.21258147 -0.6511734
-0.83750445 -0.23445232 -0.40777382 -0.048898872 -0.33941007 -0.0014888177 0.06246947 -0.29511118
-0.44538864 -0.08047707 -0.42643097 -0.31650478 0.078706756 0.13757132 -0.07914498 -0.5301498
-0.51846 -0.51930374 -0.3557349 0.07396946 -0.101301864 -0.017507777 -0.24327628 -0.087468825
-0.028702129 -0.39586288 -0.3965288 -0.09209209 -0.33421376 -0.1467256 0.034496315 0.22445114
-0.065617725 -0.06807829 0.19242603 0.41591626 0.061329722 0.24384283 0.38594583 0.06187325
0.21242307 0.16111349 -0.21036386 -0.51643753 -0.6226058 -0.63780254 -0.41806644 -0.79819095
-0.7374425 -0.16474375 -0.015723625 0.14214863 -0.58465314 -0.56158197 -0.5094458 -0.27281347
-0.37711903 0.109126024 -0.20571542 0.23641117 0.07648868 -0.39250225 -0.4443159 -0.09419983
-0.42264885 -0.64995444 -0.09033032 0.05747489 -0.0336627 -0.23834445 0.26339495 0.4223497
0.117834926 0.23437041 0.25278783 0.15217522 0.31242165 -0.037310015 -0.046656635 0.36423975
0.37802115 0.16344595 0.51002586 0.3819486 0.12785041 -0.27485868 -0.1272429 0.058248974
-0.5216458 -0.30753204 -0.13194743 -0.31844962 -0.22248407 0.12756293 0.27522042 0.0035083818
-0.0054647117 0.5056334 0.48320013 0.26375386 0.3950459 0.41464883 0.18445238 -0.23901133
-0.16313957 -0.16405827 -0.49543142 -0.4645586 -0.4214903 -0.52037346 -0.3530685 -0.15824686
-0.025311783 -0.08631637 -0.38416165 -0.51714885 -0.44777521 -0.22020124 -0.49064562 -0.43949878
-0.24613045 -0.26551744 -0.025209233 0.09612589 -0.38998735 -0.30492738 0.055662658 -0.5253797
-0.37021044 0.012697221 0.57235783 0.058439728 0.123833634 0.5924027 0.4089939 0.47541517
0.89732003 0.58688116 0.3314707 -0.46247664 -0.12699106 -0.111090705 -0.4674897 -0.43562022
-0.19808798 -0.50110334 -0.42392096 -0.029888146 0.26622185 -0.04648849 -0.045976453 0.36788744

bias f4 [32]
00000000: 54b5 853e 5b6a 44be febe f63d c918 4d3e
00000010: 7435 20be 9fdb 46be 5e86 41be cd9b 43be
00000020: 70cf bcbe da6c 433e f424 303e 1f36 36be
00000030: d2ef 73be ae57 58be 59bb 4fbe 6d73 423e
00000040: c2bb 86be aba0 24be ee5d 67be 14f5 463e
00000050: 09d3 853e f311 2fbe 7613 673e adea 6ebe
00000060: 0a4a 54be 5b89 70be 5593 ac3e a616 5cbe
00000070: 1698 813e 339d 5abe 3614 37be bf7f 5d3e
0.26114905 -0.19181196 0.120481476 0.20028986 -0.15645391 -0.19419716 -0.18898913 -0.19102402
-0.36877012 0.19084492 0.17201596 -0.17794083 -0.23821953 -0.21127197 -0.20286311 0.18989344
-0.26315123 -0.16076915 -0.22594425 0.19429427 0.2613757 -0.17096691 0.22566018 -0.23331709
-0.20731369 -0.23489897 0.33706155 -0.21493015 0.25311345 -0.21349029 -0.17878804 0.21630763
